Multi-Agent Deep Deterministic Policy Gradient/model_dir/episode-996.pt (torch_old, 71167 bytes, 99 tensors)

fc1.weight f4 [16, 14]
0	0x3e07aeff	0.1325035
1	0xbd8f7df4	-0.070064455
2	0xbe0b62f2	-0.13611963
3	0x3e18622b	0.14881198
4	0xbcbf8e61	-0.023383321
5	0x3d201ee2	0.039091952
6	0x3d8f706a	0.07003863
7	0x3d1ba566	0.037999533
8	0x3e50db4a	0.20396152
9	0xbe7e34a9	-0.24824776
10	0x3d831ca7	0.064019494
11	0x3d06fafe	0.03295421
12	0x3e3ae6df	0.18252133
13	0xbe91eded	-0.28501835
14	0x3ebcf7ed	0.36907902
15	0x3e4b0f15	0.19829972
16	0x3ece103f	0.4024677
17	0x3e913cd8	0.28366733
18	0x3e86ba25	0.26313892
19	0xbd2ca90d	-0.042153407
20	0x3c3f54ac	0.011677902
21	0x3edcdc80	0.43136978
22	0xbdad225c	-0.08453819
23	0xbdaf0224	-0.0854533
24	0xbda70522	-0.08155276
25	0x3ec6d58b	0.38834795
26	0x3cd50cfa	0.026007164
27	0xbe07a61e	-0.13246962
28	0xbeccc2a0	-0.39992237
29	0x3ed891a3	0.42298612
30	0x3ce1ac2a	0.027547915
31	0x3edc05f8	0.42973304
32	0x3c7e3e7c	0.015517827
33	0xbf031f05	-0.5121921
34	0xbe4ff0a9	-0.20306648
35	0xbe1600d7	-0.14648758
36	0x3df4d8f0	0.1195544
37	0xbec6f922	-0.38861948
38	0x3ec672fa	0.38759595
39	0xbd7b56e7	-0.061362173
40	0x3e78bb58	0.24290216
41	0x3e723f9a	0.23657075
42	0xbd95575b	-0.07292052
43	0x3eb4154c	0.35172498
44	0xbeb44dc6	-0.35215586
45	0x3ed4c3b7	0.4155557
46	0xbe022150	-0.1270802
47	0xbe866fcd	-0.26257172
48	0xbbb17551	-0.0054155965
49	0xbdcad56f	-0.099039905
50	0xbeaf927f	-0.34291455
51	0xbe8fcd88	-0.28086495
52	0x3ec0843c	0.37600887
53	0xbe2ba371	-0.16761567
54	0x3e94cff8	0.29064918
55	0x3e7e6f44	0.24847132
56	0xbeb7eee7	-0.35924456
57	0x3dd6f619	0.10496158
58	0xbe9047d7	-0.2817981
59	0x3ea76c25	0.32699695
60	0x3e51dd40	0.20494556
61	0xbe1bc71c	-0.15212673
62	0x3e26f0e2	0.16302827
63	0x3e2ae856	0.16690192
64	0xbddcad1e	-0.10775207
65	0xbe88f882	-0.26752096
66	0xbc3ef396	-0.011654755
67	0x3a92ca43	0.0011199195
68	0xbe6337d1	-0.22189261
69	0xbf414af0	-0.7550497
70	0x3d1934c1	0.037403826
71	0x3e96da47	0.29463407
72	0xbdb4eaf4	-0.08833876
73	0x3eb35b1b	0.35030445
74	0x3e812c46	0.2522909
75	0xbeba9bfa	-0.36447126
76	0x3e7b7922	0.24557927
77	0x3d4f35c3	0.05058838
78	0xbdbb7db2	-0.09154834
79	0x3cd7f49b	0.026361754
80	0xbe00b086	-0.12567338
81	0xbe49623b	-0.19666378
82	0x3dfccb9e	0.123435244
83	0xbf05b9c7	-0.522366
84	0x3ea69837	0.32538006
85	0x3f01dbfe	0.50726306
86	0xbe0e1e0b	-0.13878648
87	0x3f51e38c	0.81987834
88	0xbdd45477	-0.10367673
89	0xbec3dcef	-0.38254496
90	0x3ef2f2f0	0.47450972
91	0xbe3052a1	-0.1721902
92	0x3db6c99b	0.08925172
93	0xbcd35a78	-0.025799975
94	0x3e4d2ba7	0.20036183
95	0xbe0ac88f	-0.1355307
96	0x3d7c5748	0.061606675
97	0xbe7d00b4	-0.247073
98	0x3ebadf80	0.36498642
99	0x3e90a103	0.28247842
100	0x3f33c156	0.7021688
101	0x3e97bf86	0.29638308
102	0x3d86e916	0.06587426
103	0x3db273c7	0.08713489
104	0xbe999441	-0.2999592
105	0xbd9fa5c2	-0.07795288
106	0xbe631158	-0.22174585
107	0xbd4d197b	-0.05007313
108	0x3d474141	0.048646215
109	0xbd5b9230	-0.053606212
110	0xbf0a71f1	-0.5408011
111	0xbe60c8b8	-0.21951568
112	0x3e56b428	0.20967162
113	0xbf21d9b0	-0.6322279
114	0x3c821bdc	0.015882425
115	0xbe8e0f58	-0.2774608
116	0x3ddb9d61	0.10723377
117	0x3efa7a61	0.48921493
118	0xbe685e21	-0.22692157
119	0xbed9a8c4	-0.4251157
120	0x3c9d5d1d	0.019209439
121	0xbd8b716f	-0.06808745
122	0xbe07282b	-0.13198917
123	0x3e87472b	0.26421484
124	0x3d6abbae	0.05730789
125	0x3dc73d92	0.097285405
126	0x3d1ff481	0.039051536
127	0xbf3b3296	-0.73124063
128	0x3f07fb9e	0.5311831
129	0xbec6fe44	-0.38865864
130	0xbeda49e0	-0.42634487
131	0x3f376a7d	0.71646863
132	0x3e6eb864	0.23312527
133	0x3da5895c	0.0808284
134	0xbd2157c5	-0.039390344
135	0x3f1b159b	0.6057984
136	0x3eb2ea3e	0.34944338
137	0xbdf92742	-0.12165691
138	0xbc9aea2c	-0.01891049
139	0x3ecf2f92	0.4046598
140	0xbec60d4d	-0.38682023
141	0x3e1eb1ea	0.15497556
142	0xbec47083	-0.3836709
143	0x3e7f520b	0.2493364
144	0x3eabf199	0.33582762
145	0xbec1effd	-0.3787841
146	0x3e41380e	0.1886904
147	0x3ce3fe67	0.02783127
148	0x3e90aa90	0.2825513
149	0xbe251fe5	-0.16125448
150	0xbd730ea7	-0.059340145
151	0x3e5de514	0.21669418
152	0xbdc1a4e9	-0.09455282
153	0xbdc8adcb	-0.097987734
154	0xbebf7ba9	-0.37399033
155	0xbf213cf6	-0.62983644
156	0xbe82026b	-0.2539247
157	0xbf171b9f	-0.5902652
158	0x3eaa66e9	0.3328164
159	0x3ec07fab	0.37597403
160	0x3ead4f6c	0.33849657
161	0x3e9d8ff9	0.30773905
162	0x3ef9d860	0.48797894
163	0x3f3198d6	0.69373834
164	0x3da87512	0.082254544
165	0xbd41d900	-0.047326088
166	0x3c9c9072	0.019111846
167	0x3ed38c74	0.41318095
168	0xbee0098c	-0.43757284
169	0xbd1e4205	-0.03863718
170	0xbec21df1	-0.37913468
171	0x3e3ab473	0.18232898
172	0x3ea3ad22	0.31968027
173	0xbe197d26	-0.14989147
174	0x3ef31bc7	0.4748213
175	0x3dd0dc95	0.10198323
176	0x3f00c14d	0.50294954
177	0xbe7dd42d	-0.2478797
178	0xbe176682	-0.14785197
179	0x3dee60e0	0.11639571
180	0xbd834003	-0.06408694
181	0xbe8745cb	-0.26420435
182	0xbec5008d	-0.38476983
183	0x3d3196ad	0.043356586
184	0xbe458bfb	-0.1929168
185	0x3e954605	0.29154983
186	0xbe46aaf2	-0.19401148
187	0xbef2be54	-0.47410834
188	0xbd5e8c5d	-0.05433308
189	0xbe58be57	-0.21166359
190	0x3cb0de8a	0.02159049
191	0xbee746e2	-0.45171267
192	0x3ce9e513	0.028551614
193	0xbe14dec7	-0.14538108
194	0x3ec43069	0.38318184
195	0xbf03f453	-0.51544684
196	0xbe125888	-0.14291584
197	0x3e2a11d2	0.1660836
198	0x3db436a3	0.087994836
199	0xbe080a3f	-0.13285159
200	0xbda5d6b3	-0.08097591
201	0xbe24792f	-0.16061853
202	0x3d2940b5	0.041321475
203	0xbd851162	-0.06497456
204	0x3e4f1653	0.2022336
205	0xbea05b1c	-0.3131951
206	0x3d4d5ca7	0.05013719
207	0xbd78b051	-0.060715023
208	0x3e77e705	0.2420922
209	0xbeaaf2bd	-0.3338832
210	0x3e8bb801	0.2728882
211	0x3e1b8e00	0.15190887
212	0xbde0ad79	-0.10970587
213	0x3e8dfa6e	0.27730125
214	0x3e8be4b4	0.27322924
215	0x3e54efc2	0.20794585
216	0x3e462e95	0.19353707
217	0xbe0f5afb	-0.1399955
218	0xbdb33366	-0.08750038
219	0x3df881ef	0.12134158
220	0xbe0f9b7a	-0.14024153
221	0x3e2e4f78	0.17022502
222	0xbe1f6f7d	-0.15569873
223	0xbed667da	-0.41876107

fc1.bias f4 [16]
0	0xbe99e358	-0.30056262
1	0xbf0e12c2	-0.5549737
2	0x3e37eaf1	0.17960717
3	0x3f0d6696	0.5523466
4	0x3e860f78	0.26183677
5	0x3e4c7e8b	0.19970147
6	0x3e12bf43	0.14330773
7	0xbec02a81	-0.37532428
8	0x3d932370	0.071844935
9	0x3d3a2f18	0.04545507
10	0x3d09553c	0.03352855
11	0x3ecf2d60	0.40464306
12	0xbe61aea7	-0.22039281
13	0x3d7376b3	0.059439372
14	0xbe2ff3f4	-0.17182904
15	0xbec32a61	-0.3811827

fc2.weight f4 [8, 16]
0	0xbea38961	-0.3194075
1	0xbd985eb3	-0.074399374
2	0x3d92ad5a	0.071619704
3	0xbe36d205	-0.17853554
4	0xbdb9b10d	-0.09066973
5	0xbe824ade	-0.25447744
6	0xbf281e51	-0.6567126
7	0xbf2c5bee	-0.67327774
8	0x3ee69553	0.450358
9	0x3ef4fbc3	0.4784833
10	0x3de412e3	0.11136415
11	0x3ee8d623	0.45475873
12	0xbd12018a	-0.035646
13	0x3df0285d	0.11726449
14	0xbaa9dbad	-0.0012959145
15	0xbe9b10d5	-0.3028628
16	0x3d09c1d6	0.033632122
17	0xbd3ca27b	-0.04605339
18	0xbd57225b	-0.052523
19	0xbcb4c037	-0.022064311
20	0x3e5bf4f2	0.21480158
21	0x3e6a6087	0.22888385
22	0xbe46e17a	-0.1942195
23	0xbdbcda8d	-0.09221373
24	0xbe0e3fad	-0.13891478
25	0xbe987fe3	-0.2978507
26	0x3e101daf	0.14073823
27	0xbe257416	-0.16157565
28	0x3e2e85d4	0.17043239
29	0xbe2350fe	-0.15948865
30	0xbcf7486b	-0.030185899
31	0x3dda8166	0.10669212
32	0xbc68a714	-0.014199991
33	0x3c510658	0.01275786
34	0xbe86aa12	-0.26301628
35	0xbe8108f1	-0.25202134
36	0xbe6ca830	-0.23111033
37	0xbc3928e4	-0.011301253
38	0xbe1a93c1	-0.15095426
39	0xbe677ce2	-0.22606233
40	0xbdb42cee	-0.08797632
41	0xbdc8facf	-0.09813463
42	0x3e7cb05a	0.24676648
43	0x3b69ee64	0.003569507
44	0xbd6f0b4c	-0.058360383
45	0xbd1aa53d	-0.03775524
46	0xbe70b0df	-0.23504971
47	0x3e8c6acb	0.27425227
48	0xbef78f8a	-0.483517
49	0xbe824efa	-0.2545088
50	0x3d94ba70	0.07262123
51	0x3c110061	0.008850188
52	0x3da406f7	0.08009141
53	0x3d577e71	0.05261082
54	0x3d97c096	0.0740978
55	0xbf07a99e	-0.5299319
56	0xbe7ad36f	-0.24494718
57	0xbead6bc4	-0.3387128
58	0xbdfd4bbf	-0.12367963
59	0xbe3c39c5	-0.18381412
60	0xbdd9f812	-0.10643019
61	0xbe56acc7	-0.20964347
62	0xbe2624a0	-0.16224909
63	0xbe1ec209	-0.15503706
64	0xbe6ffa1d	-0.23435254
65	0xbed0ad3f	-0.40757176
66	0xbc95aa5a	-0.018269707
67	0x3ecf97ca	0.40545493
68	0xbdbcfac1	-0.09227515
69	0x3dc8561d	0.0978205
70	0xbb7b4bab	-0.0038344662
71	0xbe915cdb	-0.28391156
72	0xbe9643f0	-0.29348707
73	0xbe318a1e	-0.17337844
74	0x3da1c0c9	0.07898099
75	0xbe382c57	-0.17985664
76	0xbe2e0301	-0.16993333
77	0x3eb657de	0.35613912
78	0xbdf6500f	-0.12026989
79	0xbb2d04fe	-0.002640068
80	0xbd1966f8	-0.037451714
81	0xbf1a711f	-0.6032886
82	0x3d826623	0.06367137
83	0xbd8ad605	-0.06779102
84	0x3e26af9d	0.16277929
85	0xbda2dc72	-0.07952203
86	0xbe9f5439	-0.31118944
87	0xbf1e2046	-0.61767995
88	0x3e8af960	0.27143383
89	0x3d8e5ffb	0.069519006
90	0x3e1cd09f	0.15313958
91	0x3f285a26	0.65762556
92	0x3e8f63d7	0.2800586
93	0xbd0dceab	-0.034620922
94	0xbd9c2c04	-0.07625583
95	0xbd89a9fd	-0.06721876
96	0xbe55c49c	-0.20875782
97	0xbe8d4685	-0.27592865
98	0xbcf91f14	-0.030410327
99	0xbd87fce1	-0.0664003
100	0xbe5d17bb	-0.21591084
101	0xbe890a0e	-0.26765484
102	0xbe94fbd2	-0.29098374
103	0x3e1b1f88	0.15148747
104	0xbe0603d4	-0.13087398
105	0xbe1df5ef	-0.15425847
106	0xbde13ab3	-0.10997524
107	0xbe5e7432	-0.21724012
108	0xbeaaf48e	-0.33389705
109	0xbe4a9352	-0.1978276
110	0x3d50dce2	0.0509919
111	0x3d016270	0.031588018
112	0xbd54fa08	-0.05199626
113	0xbeb04c6c	-0.34433305
114	0x3eccfed6	0.40038174
115	0x3ec9acaa	0.39389545
116	0x3eaf6a05	0.34260574
117	0x3e212bd9	0.15739383
118	0x3e7e5e77	0.24840723
119	0x3c7beeb6	0.015376737
120	0xbe1e851a	-0.15480462
121	0xbe71fab6	-0.23630795
122	0x3e934957	0.2876689
123	0x3d6813fa	0.056659676
124	0x3e4392a9	0.19098915
125	0x3e233563	0.15938334
126	0xbeb941b8	-0.36182952
127	0xbd04d0f4	-0.032425836

fc2.bias f4 [8]
0	0x3f0b1961	0.543356
1	0xbe38d72c	-0.18050832
2	0xbea163f5	-0.31521574
3	0xbd8dcef1	-0.069242366
4	0x3df0db29	0.117605515
5	0x3e4cff57	0.2001928
6	0xbcff23d9	-0.031145023
7	0x3e677863	0.22604518

fc3.weight f4 [2, 8]
0	0xbf0c591c	-0.5482347
1	0x3e0a22e3	0.1348987
2	0x3de1f57b	0.1103315
3	0xbd38996c	-0.04506819
4	0xbe3cd923	-0.18442206
5	0xbecbae08	-0.39781213
6	0x3e09cce8	0.13457072
7	0xbeb80e40	-0.35948372
8	0xbef3fab0	-0.47652197
9	0x3de4f83a	0.11180158
10	0x3e89ef4d	0.26940385
11	0xbc6407cc	-0.013917875
12	0x3e43111b	0.19049494
13	0x3d970798	0.07374495
14	0xbddd6c93	-0.108117245
15	0x3efde774	0.49590647

fc3.bias f4 [2]
0	0xbeb39f36	-0.35082406
1	0xbea85850	-0.32879877

exp_avg f4 [16, 14]
0	0x38cf4335	9.8830475e-05
1	0xb714a578	-8.860014e-06
2	0x38b2002f	8.4877356e-05
3	0x377a1661	1.4906372e-05
4	0xb7e07f78	-2.6762238e-05
5	0xb6b97021	-5.526483e-06
6	0x390127e5	0.0001231726
7	0x38c28d60	9.276974e-05
8	0x3688b3be	4.0740406e-06
9	0x377e4405	1.5155417e-05
10	0x38da2a79	0.00010402961
11	0x3906eb03	0.00012866785
12	0xb5bba533	-1.3980665e-06
13	0x3792e42d	1.7510809e-05
14	0xb99e39f2	-0.0003017928
15	0x39e1a161	0.0004303558
16	0xb9850887	-0.0002537409
17	0x39bbe846	0.00035840477
18	0x36cef684	6.1679766e-06
19	0xb851d47f	-5.0027385e-05
20	0xb8a7df07	-8.0047226e-05
21	0xb856a7b0	-5.1177747e-05
22	0x373cc90d	1.1252484e-05
23	0xb889cf7f	-6.571318e-05
24	0xb8e9a2d2	-0.000111406334
25	0x394f57fb	0.00019773834
26	0x36c41be6	5.844503e-06
27	0xb70f14f9	-8.528347e-06
28	0xb90d984c	-0.00013503543
29	0xb9b93c08	-0.00035330676
30	0xb9262d41	-0.00015847852
31	0xb98cbd36	-0.00026843854
32	0x382bdf5b	4.0977593e-05
33	0x381c22e4	3.7225793e-05
34	0xb8d246c8	-0.00010026764
35	0xb9b2862d	-0.00034050774
36	0x3880fff8	6.1511935e-05
37	0xb662f979	-3.3821836e-06
38	0xb88867c7	-6.5043154e-05
39	0xb9ba5746	-0.00035541708
40	0x380cba38	3.355203e-05
41	0xb78fcafe	-1.7141454e-05
42	0x3918b279	0.00014562336
43	0xb9b44b49	-0.00034388367
44	0x389a1bb3	7.3484516e-05
45	0xb969f538	-0.00022311963
46	0x38b320d3	8.541499e-05
47	0xb812d968	-3.5011588e-05
48	0x390f3693	0.00013657873
49	0x3991e7bc	0.0002782921
50	0x384bb99d	4.8571837e-05
51	0xb716d37d	-8.989938e-06
52	0x3981ae50	0.0002473467
53	0xb86c34a0	-5.6315796e-05
54	0x3894100b	7.060178e-05
55	0xb89cdc43	-7.4796866e-05
56	0x3982ecd5	0.00024971986
57	0xb93dc42b	-0.00018097523
58	0x3969199a	0.00022230149
59	0xb8f7c22d	-0.00011814046
60	0xb734d8cd	-1.0779314e-05
61	0xb6720b6a	-3.6067454e-06
62	0x399d91aa	0.00030053902
63	0x3927ab2f	0.00015990132
64	0x38228003	3.874303e-05
65	0x381b7574	3.7064267e-05
66	0x39be3935	0.00036282247
67	0x38444018	4.6789733e-05
68	0x384878fd	4.7796395e-05
69	0x37401fff	1.14515415e-05
70	0xb943f5c6	-0.00018688207
71	0xb8c8d15e	-9.575741e-05
72	0xb9497598	-0.00019212661
73	0xb8bd2127	-9.0183974e-05
74	0x3888b5c8	6.518845e-05
75	0xb688b4bb	-4.0741556e-06
76	0xb7f2f77f	-2.8963897e-05
77	0x392f39c7	0.00016710824
78	0x3807b5f9	3.2355983e-05
79	0xb846288a	-4.7244634e-05
80	0xb8a9e128	-8.1004866e-05
81	0x37b57e58	2.1635715e-05
82	0x37792ab7	1.4851502e-05
83	0xb5b1898e	-1.3227561e-06
84	0xb93e8864	-0.00018170621
85	0xb9ae2fdb	-0.0003322352
86	0xb92821b2	-0.00016034281
87	0xb968b5d0	-0.00022192975
88	0x391dca49	0.00015048044
89	0xb7ed3b4a	-2.828021e-05
90	0x384abe4d	4.8337784e-05
91	0x39d5bba8	0.0004076634
92	0x38185c0c	3.632535e-05
93	0xb8a0be3c	-7.6648284e-05
94	0x386b05ec	5.603388e-05
95	0x39e62cac	0.00043902302
96	0x3838777b	4.3980293e-05
97	0xb83ce780	-4.5038294e-05
98	0xb8fa586c	-0.00011937399
99	0xb89dd6c9	-7.52635e-05
100	0xb8d30e83	-0.00010063967
101	0xb896c08e	-7.1884235e-05
102	0xb7c858e7	-2.3883256e-05
103	0xb85b0cd5	-5.222562e-05
104	0x3a2a0c83	0.000648685
105	0x3a6e25df	0.0009084623
106	0x39252c98	0.00015752239
107	0x38fb255d	0.00011975572
108	0x3a66a303	0.00087980943
109	0x399bbc96	0.0002970441
110	0x39494002	0.00019192699
111	0x37e6ef6c	2.7529626e-05
112	0xb8f1d9a9	-0.00011532318
113	0x37c4e271	2.3470466e-05
114	0xb70a6e7b	-8.251164e-06
115	0x38725be2	5.778287e-05
116	0xb8e4035a	-0.000108725115
117	0x3816f2f1	3.5989044e-05
118	0xba2fd1f7	-0.00067070074
119	0xba70e1b2	-0.00091889047
120	0xb8cdcdb0	-9.813474e-05
121	0x38357528	4.3262873e-05
122	0xba7863b8	-0.00094753085
123	0xba55dac5	-0.00081579044
124	0xb92c3b88	-0.00016425375
125	0xb5f4b085	-1.8230791e-06
126	0xb9b12e6e	-0.00033794664
127	0x39de7172	0.00042427663
128	0xb9832ef4	-0.0002502125
129	0x39d08f6d	0.00039779712
130	0xb92a8d9c	-0.00016265217
131	0x375c4ac3	1.3130429e-05
132	0xb9a4be51	-0.00031422314
133	0xba9a07e7	-0.0011751623
134	0xb749898c	-1.2012559e-05
135	0xb706ffb9	-8.0465625e-06
136	0xba39441d	-0.00070673396
137	0xba8bd6eb	-0.0010668909
138	0xb8ba2660	-8.876319e-05
139	0xb87b8b94	-5.9973056e-05
140	0x38ef85db	0.000114213406
141	0xb92038e0	-0.00015279977
142	0x38ec8a4a	0.00011279115
143	0xb8e0b8f7	-0.00010715605
144	0x361d56b3	2.3445289e-06
145	0x37e3268e	2.7078462e-05
146	0x391cecc5	0.00014965523
147	0xb93638f1	-0.00017378085
148	0x38459b79	4.7113255e-05
149	0xb4ec7902	-4.404647e-07
150	0x3921494d	0.00015381463
151	0xb8b4e7f9	-8.626277e-05
152	0x37a35695	1.9471432e-05
153	0x360c8109	2.0936734e-06
154	0x39744b1a	0.00023297631
155	0x39942f5c	0.00028264045
156	0x399d0d77	0.00029955406
157	0x39b6afc4	0.000348447
158	0xb9bda6f0	-0.00036173267
159	0xb8b734f7	-8.7359855e-05
160	0x382cdf27	4.1215822e-05
161	0xba740bfa	-0.0009309646
162	0x3667e250	3.4553414e-06
163	0x38b9e81d	8.864722e-05
164	0xb6b07f63	-5.2600385e-06
165	0xba07f8d2	-0.00051869184
166	0xb8516182	-4.9920294e-05
167	0x387008ba	5.7228586e-05
168	0x384caa9a	4.8796275e-05
169	0xb8073ab3	-3.2241176e-05
170	0x3856904b	5.115596e-05
171	0xb7b23d8c	-2.1247914e-05
172	0xb5c4a791	-1.4651906e-06
173	0x36153d4d	2.2238412e-06
174	0x384df65f	4.910526e-05
175	0xb7835466	-1.5655718e-05
176	0x372a80c8	1.0162774e-05
177	0xb5292ab8	-6.301957e-07
178	0x38e81650	0.00011066778
179	0xb74ebcf3	-1.232255e-05
180	0x378d88b6	1.687217e-05
181	0x361df166	2.3535335e-06
182	0x390331b9	0.00012511657
183	0xb8bdf1d3	-9.0572656e-05
184	0x38e00e4c	0.00010683815
185	0xb840f65c	-4.6005807e-05
186	0xb74990fb	-1.20142895e-05
187	0x37886651	1.6260108e-05
188	0x3847b548	4.761413e-05
189	0xb921a133	-0.00015414208
190	0x379f389a	1.8980634e-05
191	0x37110b97	8.645372e-06
192	0x38b80f24	8.776624e-05
193	0xb8361752	-4.34139e-05
194	0x36039f39	1.96132e-06
195	0x36e83c95	6.9211915e-06
196	0xb7b36523	-2.1385558e-05
197	0x372b065f	1.0193878e-05
198	0xb7643bb8	-1.3603763e-05
199	0xb685e19a	-3.9899724e-06
200	0x366fb4c7	3.5719002e-06
201	0x358dfba5	1.0578557e-06
202	0xb798d8cf	-1.8220771e-05
203	0xb724ddc8	-9.826799e-06
204	0xb700b2d7	-7.671034e-06
205	0xb6619084	-3.3611732e-06
206	0xb8034677	-3.129846e-05
207	0x3708cb5d	8.153581e-06
208	0x33a7b6fb	7.8098275e-08
209	0xb481e2e4	-2.4193207e-07
210	0x38142121	3.5316803e-05
211	0xb808e90b	-3.2641965e-05
212	0x373cee1c	1.1261112e-05
213	0xb7a88962	-2.0091135e-05
214	0xb7d4e884	-2.5380643e-05
215	0xb5a90565	-1.2593051e-06
216	0x39a89ff4	0.0003216263
217	0x3910c660	0.0001380681
218	0x385af75a	5.2205614e-05
219	0x37daff3a	2.6106474e-05
220	0x394e03a2	0.00019647044
221	0x3623b83d	2.4396134e-06
222	0x37f88985	2.9627941e-05
223	0x3734208a	1.0736412e-05

exp_avg_sq f4 [16, 14]
0	0x32190414	8.906699e-09
1	0x32f2dc8d	2.8272803e-08
2	0x3208ac9d	7.95549e-09
3	0x32e9aa4c	2.7202212e-08
4	0x304a204b	7.3533063e-10
5	0x305b4b67	7.977889e-10
6	0x339ac26a	7.2065475e-08
7	0x3297c3bf	1.7667729e-08
8	0x31206778	2.334188e-09
9	0x2faa3338	3.0959213e-10
10	0x3315be5a	3.486489e-08
11	0x336f4747	5.571135e-08
12	0x3086397e	9.766123e-10
13	0x2fd09a70	3.7944714e-10
14	0x34ba4c27	3.4700608e-07
15	0x33be8539	8.8717975e-08
16	0x34ac8475	3.2133872e-07
17	0x33b9044b	8.615515e-08
18	0x3220ca21	9.3591845e-09
19	0x31429e23	2.8320606e-09
20	0x34a80994	3.1299408e-07
21	0x3497c89a	2.82719e-07
22	0x30ee1a43	1.7324243e-09
23	0x321058ae	8.402067e-09
24	0x34b2a048	3.3271704e-07
25	0x341a5062	1.4371611e-07
26	0x3101c135	1.8881796e-09
27	0x314f814c	3.0195961e-09
28	0x332c17d8	4.0068556e-08
29	0x3443dd3f	1.8241279e-07
30	0x33255a9a	3.8499458e-08
31	0x3456e179	2.001233e-07
32	0x30a41a2a	1.1940007e-09
33	0x31d912bf	6.3176624e-09
34	0x34494e13	1.8747987e-07
35	0x34945e57	2.763579e-07
36	0x31d3316e	6.1465277e-09
37	0x30e09704	1.6341066e-09
38	0x33fcd755	1.1773833e-07
39	0x348c6125	2.6147714e-07
40	0x316316a8	3.3045726e-09
41	0x309afe81	1.1277309e-09
42	0x352fe44f	6.5524813e-07
43	0x34d0ee7e	3.8916545e-07
44	0x3523d98f	6.103882e-07
45	0x34d90dd0	4.042945e-07
46	0x33026003	3.0355306e-08
47	0x3286d8a7	1.5698175e-08
48	0x3561bb25	8.4091363e-07
49	0x354da9d0	7.661556e-07
50	0x328e0362	1.6532514e-08
51	0x3262f432	1.3210455e-08
52	0x3551c3dd	7.8143586e-07
53	0x355cbe32	8.223316e-07
54	0x32240577	9.547299e-09
55	0x3219cb5c	8.952011e-09
56	0x34c3d44c	3.6476047e-07
57	0x352d6f66	6.460963e-07
58	0x34bd9828	3.5314702e-07
59	0x353f6086	7.1293505e-07
60	0x32979d24	1.7650173e-08
61	0x32f37d8f	2.834602e-08
62	0x34cd1d25	3.820543e-07
63	0x35b314be	1.3342576e-06
64	0x3282fcb5	1.524891e-08
65	0x3254ee88	1.239426e-08
66	0x3522710c	6.051421e-07
67	0x3573a70b	9.0767634e-07
68	0x32a0b270	1.8707595e-08
69	0x31c30cf5	5.67672e-09
70	0x34222d88	1.510399e-07
71	0x3495e5b4	2.7920544e-07
72	0x34177094	1.4103927e-07
73	0x34937cf6	2.7471805e-07
74	0x3230d13b	1.0292122e-08
75	0x322951bb	9.855678e-09
76	0x3400339a	1.1939701e-07
77	0x34b9c6c4	3.4603556e-07
78	0x323e85e9	1.1089903e-08
79	0x31be6124	5.5407714e-09
80	0x3482c845	2.4360102e-07
81	0x3502de1e	4.8751997e-07
82	0x32350b99	1.0538224e-08
83	0x310027cb	1.8649071e-09
84	0x357ed9be	9.493923e-07
85	0x34304d49	1.6419393e-07
86	0x357185b9	8.997409e-07
87	0x3426a6bb	1.5520611e-07
88	0x334701d1	4.633495e-08
89	0x31834dcf	3.8214476e-09
90	0x3572f891	9.0513737e-07
91	0x359bcd28	1.1608108e-06
92	0x312872de	2.4512512e-09
93	0x330372a1	3.060507e-08
94	0x354ed89b	7.705618e-07
95	0x358b50a4	1.0379777e-06
96	0x318e319f	4.138385e-09
97	0x32e3c992	2.6517942e-08
98	0x33680cc7	5.402833e-08
99	0x31ccc8b9	5.960001e-09
100	0x336523e8	5.3350874e-08
101	0x31d833c6	6.2923133e-09
102	0x30c48405	1.4298399e-09
103	0x2fa87cb8	3.064764e-10
104	0x33719e50	5.625617e-08
105	0x337cc320	5.8850787e-08
106	0x30a99a4d	1.2340223e-09
107	0x31169f1b	2.1918314e-09
108	0x33614486	5.2449217e-08
109	0x32fb42c7	2.9250613e-08
110	0x30e0908d	1.6339229e-09
111	0x30528ad9	7.659487e-10
112	0x33a15005	7.511702e-08
113	0x347c6eff	2.3509709e-07
114	0x339d19ce	7.315576e-08
115	0x3471c39c	2.2516036e-07
116	0x3169fe56	3.4050536e-09
117	0x320c63a7	8.171731e-09
118	0x339ac7a6	7.2075e-08
119	0x343490d7	1.6816499e-07
120	0x31a07551	4.66995e-09
121	0x31fcb055	7.354212e-09
122	0x33ad3800	8.0661266e-08
123	0x33dbd831	1.0237307e-07
124	0x31ab2712	4.981197e-09
125	0x3239f626	1.0824385e-08
126	0x35b53851	1.3501941e-06
127	0x35a16b3a	1.2026642e-06
128	0x35b274cf	1.3296029e-06
129	0x35a70cb5	1.2446168e-06
130	0x338572f1	6.214203e-08
131	0x330b5841	3.2443726e-08
132	0x359560e7	1.1129567e-06
133	0x36094540	2.04549e-06
134	0x31c417ee	5.7070713e-09
135	0x33631d0c	5.2878974e-08
136	0x35912b27	1.0815901e-06
137	0x35af4d4f	1.3061016e-06
138	0x320997c1	8.008954e-09
139	0x334e2abe	4.8001986e-08
140	0x33e3183d	1.057492e-07
141	0x34acfb5b	3.2220382e-07
142	0x33de7e0e	1.036061e-07
143	0x34b3436d	3.3390407e-07
144	0x3187e840	3.955421e-09
145	0x32099beb	8.009901e-09
146	0x340be49e	1.3028554e-07
147	0x34f4eb12	4.5619578e-07
148	0x315bc6c4	3.198168e-09
149	0x31827bf8	3.7975916e-09
150	0x34d6550c	3.9922486e-07
151	0x351cc3fd	5.839973e-07
152	0x320aaf72	8.072549e-09
153	0x3166e512	3.3599616e-09
154	0x33acd0f1	8.0473804e-08
155	0x34198a2c	1.4299502e-07
156	0x33b0bf90	8.230484e-08
157	0x3417adf2	1.4126252e-07
158	0x320e8168	8.294911e-09
159	0x3180c864	3.748072e-09
160	0x33af0865	8.1505995e-08
161	0x34789f82	2.3154828e-07
162	0x30cb9774	1.481324e-09
163	0x329064ea	1.6809697e-08
164	0x33e7375c	1.07668455e-07
165	0x33f40ec8	1.1364824e-07
166	0x311c2d65	2.2726792e-09
167	0x31c79fa8	5.809813e-09
168	0x3352a15d	4.9041194e-08
169	0x343ea03b	1.775342e-07
170	0x3351c124	4.8837265e-08
171	0x343fcc08	1.7862487e-07
172	0x310a6a91	2.014222e-09
173	0x318888a1	3.973654e-09
174	0x338acfe7	6.463943e-08
175	0x349d835a	2.93391e-07
176	0x30c9910c	1.46659e-09
177	0x3129e3ac	2.4722153e-09
178	0x3481b38a	2.4158754e-07
179	0x34ae6a80	3.2487515e-07
180	0x31c2eb22	5.6728746e-09
181	0x312cebf0	2.516341e-09
182	0x322882c3	9.808619e-09
183	0x334a5177	4.7105882e-08
184	0x320bab23	8.129777e-09
185	0x334c4f18	4.7569387e-08
186	0x304fdb5a	7.561788e-10
187	0x30ac6a6f	1.2544897e-09
188	0x331ab30f	3.6018772e-08
189	0x337199bd	5.625201e-08
190	0x30e9aab1	1.7001495e-09
191	0x3048c229	7.3035494e-10
192	0x3384f987	6.192118e-08
193	0x33c2dbbc	9.0737984e-08
194	0x30ed0fac	1.7248474e-09
195	0x303d2453	6.880942e-10
196	0x3259c61f	1.267611e-08
197	0x330f4a18	3.336217e-08
198	0x32511be7	1.2171745e-08
199	0x331170c0	3.386299e-08
200	0x2ff046bf	4.3706014e-10
201	0x30f64a34	1.7919946e-09
202	0x32906ff3	1.6814715e-08
203	0x329c147e	1.8170109e-08
204	0x30c51b2d	1.434136e-09
205	0x2fff47f8	4.6435367e-10
206	0x328a1cb8	1.6078374e-08
207	0x32d0c471	2.4303718e-08
208	0x30c2d888	1.41769e-09
209	0x2fcef4a3	3.7645007e-10
210	0x32aceb59	2.0130459e-08
211	0x34378f69	1.7095375e-07
212	0x32bcd626	2.1983464e-08
213	0x343a5d7c	1.735661e-07
214	0x30f9c049	1.8171785e-09
215	0x318ef9d4	4.161146e-09
216	0x33e5fd61	1.0709733e-07
217	0x33f4f6b0	1.14070076e-07
218	0x31693b7f	3.3939782e-09
219	0x305c6078	8.0172624e-10
220	0x348f11f5	2.664889e-07
221	0x34c94921	3.7492376e-07
222	0x3219de38	8.956299e-09
223	0x315b96bf	3.1954384e-09

exp_avg f4 [16]
0	0x38f8b818	0.00011859852
1	0x39960dd3	0.0002862053
2	0xb95c9ef8	-0.00021040055
3	0xb9e83763	-0.00044291755
4	0xb91a5c7b	-0.00014721036
5	0xb90a27cb	-0.0001317553
6	0xb9befdb3	-0.00036428645
7	0xb87a3bd1	-5.9660353e-05
8	0x399e56dc	0.00030200824
9	0x38d8fc1c	0.00010346642
10	0xb93cd622	-0.00018008848
11	0x38316fda	4.230426e-05
12	0xb86836b7	-5.5364068e-05
13	0xb8375113	-4.3706106e-05
14	0x37410029	1.1503734e-05
15	0x3814216a	3.531707e-05

exp_avg_sq f4 [16]
0	0x324fa200	1.208582e-08
1	0x338bee6b	6.51606e-08
2	0x3433dcb3	1.6750964e-07
3	0x34fa1a0e	4.6585086e-07
4	0x353fa3a9	7.13912e-07
5	0x3471370b	2.2464899e-07
6	0x34a39cee	3.0475297e-07
7	0x3216747a	8.757633e-09
8	0x341a2957	1.4357407e-07
9	0x3528b8c5	6.285375e-07
10	0x3482be57	2.4352877e-07
11	0x33ef5cfd	1.1146219e-07
12	0x33f35ef4	1.1332841e-07
13	0x32ef2a3d	2.784247e-08
14	0x333a17ce	4.332815e-08
15	0x33f051d8	1.1190758e-07

exp_avg f4 [8, 16]
0	0xb7ae3629	-2.0767637e-05
1	0xba077371	-0.00051670434
2	0x3858f3ac	5.172535e-05
3	0x3994f444	0.00028410752
4	0xb977cc94	-0.00023631967
5	0xb8b8df22	-8.8153654e-05
6	0x39474332	0.00019003151
7	0x3814f7aa	3.5516605e-05
8	0x3ab6b575	0.0013939576
9	0xbab6fcd1	-0.0013960843
10	0xb8fa6ea4	-0.000119415374
11	0xba2e89d8	-0.00066581136
12	0xb91e677d	-0.00015106607
13	0x38a1ecb0	7.721165e-05
14	0x369ab38c	4.6104597e-06
15	0x38827bf6	6.2219726e-05
16	0x384b8852	4.852593e-05
17	0xb85d1f07	-5.2719402e-05
18	0x39200c69	0.00015263412
19	0x39184083	0.00014519882
20	0x3918cf54	0.00014573085
21	0x381aeece	3.6938865e-05
22	0x3802b56b	3.1163374e-05
23	0xb83bbfec	-4.4763015e-05
24	0x37c69568	2.3673012e-05
25	0x36346f38	2.6886828e-06
26	0x39985e1a	0.0002906181
27	0x387fb05a	6.0960978e-05
28	0x398b0098	0.00026512588
29	0x3851cb0b	5.001858e-05
30	0x360174bf	1.9290453e-06
31	0x38b1a6f3	8.4711144e-05
32	0x36213822	2.4023543e-06
33	0x369247ec	4.359512e-06
34	0x3493d352	2.753464e-07
35	0x3585d8bf	9.972354e-07
36	0x3718bd7c	9.104024e-06
37	0x3742d30a	1.1612437e-05
38	0x36974b0d	4.5088877e-06
39	0x3428e508	1.572954e-07
40	0x3538f1cc	6.88972e-07
41	0x3621fcb9	2.4137973e-06
42	0x37422ab9	1.1573248e-05
43	0x36701af6	3.577848e-06
44	0x3773b338	1.4525656e-05
45	0x34905f3b	2.689138e-07
46	0x34c33a04	3.6363792e-07
47	0x36db038b	6.527121e-06
48	0x37550685	1.2697307e-05
49	0x38119a3f	3.4714347e-05
50	0x38005783	3.059908e-05
51	0x3811277f	3.4607478e-05
52	0x384ad7be	4.836148e-05
53	0x3845b2d1	4.7134996e-05
54	0x381b5aae	3.703933e-05
55	0x3743f4b4	1.167988e-05
56	0x35a2011a	1.2070261e-06
57	0x365856f2	3.2237117e-06
58	0x38476fa2	4.7549263e-05
59	0x36c35194	5.82095e-06
60	0x383624ba	4.3426386e-05
61	0x36dd878c	6.602093e-06
62	0x351120f7	5.406468e-07
63	0x37992a34	1.8258674e-05
64	0x3776dcec	1.471418e-05
65	0x368991c8	4.0998893e-06
66	0xb83196b1	-4.234043e-05
67	0x38234b04	3.8932092e-05
68	0xb7c633bd	-2.3627532e-05
69	0x3816fbea	3.59974e-05
70	0x388dbf15	6.758996e-05
71	0x362767c0	2.494533e-06
72	0xb761aa31	-1.3450671e-05
73	0x38f5cbbe	0.0001172046
74	0xb888b0f0	-6.5179425e-05
75	0x389eb9ea	7.568656e-05
76	0x37376319	1.0930723e-05
77	0xb8469a1f	-4.7350415e-05
78	0xb54d4d1f	-7.6480677e-07
79	0x3735e4fc	1.0841755e-05
80	0xb63eb71d	-2.8418792e-06
81	0x39631feb	0.00021660297
82	0xb7c5ca05	-2.3578303e-05
83	0x395b82b9	0.00020934166
84	0xb96c8de5	-0.00022559574
85	0xb881d726	-6.191274e-05
86	0x39953c3e	0.0002846438
87	0x3938c400	0.00017620623
88	0xb95f462f	-0.00021293083
89	0x39d75c8d	0.0004107695
90	0xb98636f8	-0.00025599427
91	0xb9c9b950	-0.00038475776
92	0xb959c7af	-0.0002076912
93	0xb8985f6e	-7.2657e-05
94	0x359955cd	1.142436e-06
95	0xb77a6bbd	-1.4926246e-05
96	0x2e7ed214	5.79395e-11
97	0x324c5ef0	1.1895949e-08
98	0x31884b80	3.9667043e-09
99	0x31b07515	5.135585e-09
100	0x305fa635	8.136312e-10
101	0x2f22775e	1.4776222e-10
102	0x2c47fba6	2.8419294e-12
103	0x33437be3	4.551465e-08
104	0x331f9395	3.7154297e-08
105	0x300df810	5.164802e-10
106	0x31298a3e	2.4671318e-09
107	0xad686b5b	-1.3211511e-11
108	0x2f386cfe	1.6773424e-10
109	0x2faf123f	3.184528e-10
110	0x313ae1e5	2.7194968e-09
111	0x31a1371d	4.6919824e-09
112	0xb86fd874	-5.7183628e-05
113	0xba7a248c	-0.0009542189
114	0xb9b9f256	-0.00035466504
115	0xb9c3c52d	-0.00037340206
116	0xb98f8a56	-0.00027378154
117	0xb9b520f2	-0.00034547556
118	0xba6e392e	-0.00090875
119	0xba41ca8e	-0.0007392549
120	0xb991b4b7	-0.00027791198
121	0x3807474d	3.2252912e-05
122	0xb9edb41b	-0.00045338352
123	0x39863c59	0.00025603434
124	0xb8fe0cf0	-0.000121140736
125	0xb93690ab	-0.00017410766
126	0xb5bfd967	-1.4293881e-06
127	0xb9428aa5	-0.00018552931

exp_avg_sq f4 [8, 16]
0	0x31d61b11	6.231297e-09
1	0x32dcaf5a	2.5691111e-08
2	0x3355e338	4.979958e-08
3	0x33e0490a	1.04440986e-07
4	0x3385b755	6.226643e-08
5	0x33b9835f	8.63863e-08
6	0x3553368a	7.868299e-07
7	0x323aeabb	1.08799965e-08
8	0x3628f6db	2.517764e-06
9	0x3722aac5	9.695713e-06
10	0x344969de	1.8758098e-07
11	0x3481e20f	2.4192602e-07
12	0x3417f393	1.4151583e-07
13	0x32ebf6a7	2.7469765e-08
14	0x3193166c	4.280812e-09
15	0x346b20e2	2.1898043e-07
16	0x33b83b97	8.579007e-08
17	0x34abfc3f	3.2034765e-07
18	0x355650c4	7.983874e-07
19	0x35906f34	1.07612e-06
20	0x35af0e7a	1.3042729e-06
21	0x35acda77	1.287858e-06
22	0x34b751cb	3.4145918e-07
23	0x33f62139	1.1461311e-07
24	0x36130b32	2.1911223e-06
25	0x33d63ad8	9.975855e-08
26	0x35e25737	1.6863695e-06
27	0x339b67c7	7.236627e-08
28	0x35a1afd1	1.2046604e-06
29	0x3392866a	6.8231046e-08
30	0x350f59d3	5.340236e-07
31	0x359343f8	1.0972135e-06
32	0x3253eb91	1.2335378e-08
33	0x3343b154	4.5563255e-08
34	0x32fa0ea7	2.9110494e-08
35	0x32f29e01	2.824436e-08
36	0x33ace849	8.0516266e-08
37	0x33c55388	9.1887216e-08
38	0x331901b0	3.5624623e-08
39	0x313f3cbe	2.7828686e-09
40	0x350b380e	5.1863105e-07
41	0x33cb0d52	9.455347e-08
42	0x34b8cfd6	3.442389e-07
43	0x322ae68c	9.947723e-09
44	0x34a15f6d	3.0058018e-07
45	0x329aad8c	1.800688e-08
46	0x34385d13	1.7170196e-07
47	0x350bbb1d	5.205382e-07
48	0x322669d1	9.686532e-09
49	0x33dfa658	1.04145045e-07
50	0x33da74fb	1.0172695e-07
51	0x34057fb6	1.2433051e-07
52	0x3412b3fb	1.3662786e-07
53	0x3408c1a8	1.2736439e-07
54	0x33af86c5	8.173587e-08
55	0x321068c8	8.405728e-09
56	0x3572f4d2	9.0508286e-07
57	0x325ff1df	1.30353035e-08
58	0x34178b87	1.411373e-07
59	0x3200c5dc	7.495569e-09
60	0x33c7b0aa	9.2987946e-08
61	0x319d28d5	4.5739434e-09
62	0x349cb150	2.9186276e-07
63	0x329ebde6	1.8479977e-08
64	0x32f34933	2.832221e-08
65	0x339b2050	7.2236276e-08
66	0x340f450b	1.334303e-07
67	0x342d1900	1.6120975e-07
68	0x343c2117	1.7520902e-07
69	0x3451463e	1.9490196e-07
70	0x343c7fd8	1.7555374e-07
71	0x32629368	1.3188448e-08
72	0x347bd7fe	2.3454774e-07
73	0x3418d423	1.4233278e-07
74	0x348a3888	2.5745635e-07
75	0x32b567f6	2.111845e-08
76	0x3449ef07	1.8806541e-07
77	0x329f9eaa	1.8582188e-08
78	0x339e5ed0	7.3746946e-08
79	0x34254034	1.539018e-07
80	0x3392aa04	6.8295805e-08
81	0x32f052a7	2.7977263e-08
82	0x34fd98bd	4.7236054e-07
83	0x35196998	5.71506e-07
84	0x352e0d7b	6.483967e-07
85	0x35655b31	8.544185e-07
86	0x35a19d57	1.2041227e-06
87	0x31e7cf57	6.7465566e-09
88	0x3513e618	5.50966e-07
89	0x376df550	1.4183417e-05
90	0x357b3749	9.3585237e-07
91	0x34ce7c45	3.8460908e-07
92	0x3536f94f	6.8163075e-07
93	0x32a8e0bc	1.9659971e-08
94	0x32231237	9.49199e-09
95	0x34c4a8a7	3.6630556e-07
96	0x2e2f706e	3.989025e-11
97	0x29e0033d	9.94816e-14
98	0x2e2731d2	3.8015653e-11
99	0x2ecd5fbb	9.339326e-11
100	0x2e089305	3.10534e-11
101	0x2dac6b2e	1.9601733e-11
102	0x29a0f68a	7.148195e-14
103	0x2da520b9	1.877286e-11
104	0x2f8d47ea	2.5698849e-10
105	0x2c97cfdd	4.3147556e-12
106	0x2c0f11ba	2.0331362e-12
107	0x2a3e9513	1.692711e-13
108	0x2a48a291	1.781997e-13
109	0x2d15c8d8	8.514266e-12
110	0x2e96b6ac	6.853659e-11
111	0x2d0e7bb9	8.099237e-12
112	0x349e5647	2.9492568e-07
113	0x351e9fd6	5.909218e-07
114	0x360ab087	2.0666355e-06
115	0x364ae9cb	3.023643e-06
116	0x3602c889	1.9488236e-06
117	0x360c70c7	2.092727e-06
118	0x365ff1c2	3.337031e-06
119	0x341149b5	1.3530992e-07
120	0x350c2b15	5.2216757e-07
121	0x3634dc2b	2.6950245e-06
122	0x367d174a	3.7713494e-06
123	0x3587d6f4	1.0120843e-06
124	0x3610e831	2.1592825e-06
125	0x355f6dc5	8.323371e-07
126	0x33fb0738	1.16894114e-07
127	0x3632f96b	2.6669247e-06

exp_avg f4 [8]
0	0xb94ecb42	-0.0001972141
1	0x38c7a9cb	9.520686e-05
2	0x36c1fd4a	5.781335e-06
3	0x37b09dab	2.1054255e-05
4	0xb7f080f1	-2.8670273e-05
5	0xb8691b4a	-5.5576944e-05
6	0x33239239	3.8084384e-08
7	0xba6d021e	-0.0009041148

exp_avg_sq f4 [8]
0	0x3657769d	3.2106539e-06
1	0x36163037	2.2379807e-06
2	0x34891cce	2.5539197e-07
3	0x34df7bf0	4.1627163e-07
4	0x34b49a55	3.3639904e-07
5	0x3623d42c	2.4412393e-06
6	0x2ff8fbe3	4.5289913e-10
7	0x37075b8a	8.06794e-06

exp_avg f4 [2, 8]
0	0x3a0360c0	0.00050116703
1	0x3a4af8a5	0.00077427394
2	0x36016a02	1.9284203e-06
3	0x390125cd	0.0001231648
4	0x390497f7	0.00012645112
5	0x3a9152e4	0.0011087325
6	0x30e4597a	1.6614614e-09
7	0xb9f5ae20	-0.00046859775
8	0x3a7e0c67	0.0009691179
9	0x39fecbc7	0.0004859848
10	0x35e1cff2	1.6824326e-06
11	0x393d3c2e	0.00018046863
12	0x38b0f223	8.4374355e-05
13	0xba914b32	-0.0011085032
14	0x321f4385	9.27037e-09
15	0xbab01825	-0.001343493

exp_avg_sq f4 [2, 8]
0	0x37dd088f	2.6349238e-05
1	0x3773b570	1.4526173e-05
2	0x363f95aa	2.8548334e-06
3	0x36b99719	5.5310197e-06
4	0x370ae5ec	8.278974e-06
5	0x37056e36	7.953078e-06
6	0x2ce1c6d5	6.4169594e-12
7	0x37ca6527	2.412738e-05
8	0x3775e517	1.4656477e-05
9	0x37a6b050	1.9870844e-05
10	0x367a37f4	3.7285472e-06
11	0x360cf663	2.1005042e-06
12	0x37333701	1.0682038e-05
13	0x3647b6ce	2.9759717e-06
14	0x2ef63193	1.1195591e-10
15	0x37fd964f	3.0229943e-05

exp_avg f4 [2]
0	0xbb10d686	-0.0022100522
1	0x3aaecdbb	0.0013336459

exp_avg_sq f4 [2]
0	0x38acaa25	8.233291e-05
1	0x38d52adc	0.00010164615

fc1.weight f4 [32, 20]
0	0x3f0d313e	0.5515326
1	0x3c5da61d	0.013528374
2	0x3f7911df	0.97292894
3	0x3f133967	0.57509464
4	0x3f000e29	0.50021607
5	0x3e85f7b4	0.26165545
6	0xbe9bce79	-0.30430964
7	0x3e47a36b	0.19495933
8	0x3d91e5d1	0.07123912
9	0xbe79f450	-0.24409604
10	0x3d6af69b	0.057364088
11	0xbe1bfff0	-0.15234351
12	0xbe203000	-0.1564331
13	0xbd9e2f12	-0.07723822
14	0x3eb885be	0.36039537
15	0x3cac61a9	0.021042662
16	0x3d15389b	0.036430936
17	0x3d561285	0.052263755
18	0x3d105f0e	0.0352469
19	0xbdcb2bae	-0.099204406
20	0x3d6f9dc8	0.05850008
21	0x3e1067c1	0.14102079
22	0xbf875612	-1.0573142
23	0x3f2ed743	0.68297213
24	0xbe19372a	-0.1496245
25	0x3dc84e22	0.09780528
26	0xbe15aa37	-0.14615713
27	0x3edfcf5a	0.43712884
28	0x3e0aba2d	0.13547583
29	0x3e5ffdbd	0.21874137
30	0xbd83c78a	-0.064345434
31	0xbd453ebe	-0.04815554
32	0xbd04887e	-0.03235673
33	0xbe8256f7	-0.25456974
34	0x3c5c16a2	0.01343313
35	0x3dd1cc2d	0.102440216
36	0x3daf5c86	0.08562569
37	0xbd93a902	-0.0720997
38	0x3d17281d	0.03690349
39	0xbc5c6c3f	-0.013453542
40	0x3eb9bafd	0.36275473
41	0xbed4aef0	-0.41539717
42	0x3f78e8f6	0.9723047
43	0xbec78709	-0.3897021
44	0x3e66b3c1	0.22529508
45	0x3e5747e1	0.21023513
46	0xbdd36d3e	-0.10323571
47	0x3c14ccfc	0.009082075
48	0xbe8778d5	-0.26459375
49	0x3cce4084	0.025177248
50	0x3ded7721	0.11594988
51	0x3e3575e5	0.17720754
52	0xbe4f02a0	-0.20215845
53	0x3e1d4f7d	0.15362354
54	0xbde960a4	-0.11395386
55	0xbdbbb245	-0.091648616
56	0x3c3a169d	0.0113579305
57	0x3d236e0a	0.039899863
58	0x3df702e0	0.12061095
59	0xbc125fbc	-0.008933958
60	0x3d52bc74	0.051449254
61	0xbc28453f	-0.010270416
62	0xbef12875	-0.4710118
63	0xbf3f0061	-0.74609953
64	0xbd3a632b	-0.04550473
65	0xbe149823	-0.1451116
66	0x3e0a1df6	0.13487992
67	0xbe10aa88	-0.14127553
68	0x3e48dfb4	0.19616586
69	0x3e3b4a99	0.18290175
70	0xbc7613d9	-0.0150193805
71	0x3e143dad	0.14476652
72	0xbe522173	-0.20520572
73	0xbdc49703	-0.09599116
74	0xbe280bf5	-0.16410811
75	0xbd9f5c5b	-0.07781287
76	0xbcd2bfe4	-0.025726266
77	0x3ca62fbc	0.020286433
78	0x3e146568	0.14491808
79	0x3e1a581c	0.15072674
80	0x3e397129	0.18109573
81	0xbd96b0b7	-0.073579244
82	0x3e2e66f7	0.17031465
83	0xbecb1091	-0.39661077
84	0x3df6117c	0.12015054
85	0xbe81e0dc	-0.25366867
86	0x3d942258	0.07233113
87	0xbd550b30	-0.052012622
88	0x3dc382c0	0.09546423
89	0x3d426ca1	0.047466878
90	0x3e96a814	0.29425108
91	0xbea2a59f	-0.31766984
92	0xbe268f6b	-0.16265647
93	0x3e5e2965	0.21695478
94	0x3dc6cb92	0.09706797
95	0x3ca56662	0.020190421
96	0x3e123a3a	0.14280024
97	0xbdfb6986	-0.122759864
98	0x3e009a18	0.12558782
99	0xbe704333	-0.23463134
100	0x3e866d08	0.2625506
101	0xbddd9ed1	-0.108213075
102	0x3d7d1dcd	0.061796
103	0xbeed209a	-0.46313936
104	0xbd3c59d5	-0.045984108
105	0xbd4bd061	-0.049759272
106	0xbea181f7	-0.31544468
107	0xbe5cf5c1	-0.21578123
108	0xbe3ce2a2	-0.18445829
109	0xbdacd0e2	-0.08438279
110	0xbc81ae05	-0.01583005
111	0xbdc3ae25	-0.095547
112	0xbcea714e	-0.028618481
113	0xbe3ea2c0	-0.18616772
114	0x3e80069e	0.2500505
115	0xbe2ab814	-0.16671783
116	0xbdfd8468	-0.1237877
117	0x3da333f1	0.079688914
118	0xbdd2d815	-0.102951206
119	0x3e2a1ed4	0.16613322
120	0x3d412810	0.047157347
121	0x3df0974d	0.11747608
122	0xbf830e78	-1.023879
123	0xbf6e3abc	-0.9305837
124	0xbe2250de	-0.15851161
125	0xbd040e0c	-0.03223996
126	0x3e108ed9	0.14116992
127	0xbe06e8fe	-0.13174817
128	0x3ec22845	0.37921348
129	0xbd3c63e9	-0.04599372
130	0xbda17aa8	-0.07884723
131	0xbe1fdd1e	-0.15611693
132	0x3d8e204d	0.06939755
133	0xbdecba8a	-0.11559017
134	0xbdad4502	-0.08460428
135	0xbdab8c40	-0.0837636
136	0x3ea1f317	0.31630775
137	0x3daae0fe	0.08343695
138	0x3d98f8f3	0.07469358
139	0xbda44f0d	-0.0802289
140	0x3d434e15	0.047681887
141	0xbebe8a92	-0.37215096
142	0x3f279a85	0.65470153
143	0xbf1811cb	-0.5940215
144	0x3e0132b4	0.12616998
145	0x3d88f9eb	0.06688293
146	0x3e65c317	0.22437702
147	0xbe168db8	-0.14702499
148	0x3d6630de	0.056198947
149	0xbcb25c2b	-0.021772465
150	0x3d6cafb1	0.05778474
151	0x3e2afae4	0.1669727
152	0xbe796390	-0.24354386
153	0x3e584e98	0.21123731
154	0x3df5bb66	0.11998634
155	0x3da5afa8	0.080901444
156	0x3e26baec	0.16282243
157	0xbd37ef23	-0.044905793
158	0x3ce4a962	0.0279128
159	0xbe200379	-0.15626325
160	0xbdad9bbe	-0.08476971
161	0x3dcfcd3e	0.10146569
162	0x3e336fcd	0.17523117
163	0xbe704c65	-0.23466642
164	0xbe9347f1	-0.28765824
165	0xbd462dc8	-0.048383504
166	0x3d21020f	0.039308604
167	0x3e3d3bcf	0.18479846
168	0x3efc5f7c	0.492916
169	0x3e9635e6	0.29337996
170	0x3cee0282	0.02905393
171	0xbe9cbd26	-0.3061306
172	0x3eecbf97	0.4623992
173	0xbe845b57	-0.25850937
174	0xbd89606c	-0.06707844
175	0x3d03d31f	0.032183763
176	0x3f3b9184	0.73268914
177	0x3ea5c1dd	0.32374468
178	0x3eeeabd3	0.46615466
179	0xbe812e59	-0.25230673
180	0x3c747b51	0.014921979
181	0xbd3f693f	-0.04673123
182	0xbe28b452	-0.16475037
183	0x3d30f39e	0.04320108
184	0x3e864e05	0.262314
185	0xbd0dd586	-0.03462746
186	0xbe5a44aa	-0.21315256
187	0x3e8f2eae	0.279653
188	0x3b176424	0.002310046
189	0x3e211afa	0.15732947
190	0xbe82135c	-0.25405395
191	0xbe060867	-0.13089143
192	0xbeab2513	-0.33426723
193	0x3ea1fc9c	0.31638038
194	0x3e9fa33f	0.31179234
195	0x3e4f02b5	0.20215876
196	0x3d9335ac	0.071879715
197	0x3dea61c3	0.11444428
198	0xbda6f6f5	-0.08152572
199	0x3e58e328	0.21180403
200	0x3d9b5f3d	0.07586525
201	0xbcfaaf91	-0.030601295
202	0x3efbad31	0.49155572
203	0xbf01c875	-0.506965
204	0xbe599bf2	-0.21250895
205	0x3ebdb393	0.37051067
206	0x3e3cad30	0.18425441
207	0x3d9ffd7a	0.07812019
208	0x3f0980a8	0.5371194
209	0x3f09567c	0.5364759
210	0xbd9ac4f2	-0.075570956
211	0xbed0bfd6	-0.4077136
212	0x3d1de072	0.038544126
213	0x3d874bb1	0.06606234
214	0xbeb210d4	-0.34778464
215	0x3e8a2a24	0.26985276
216	0x3eaf0f25	0.34191242
217	0x3ec384ed	0.38187352
218	0xbe37b627	-0.1794058
219	0xbd9fad5f	-0.0779674
220	0x3dfd7d64	0.12377432
221	0xbdb3bfa0	-0.08776784
222	0x3f2e9a1c	0.682039
223	0xbea36327	-0.31911585
224	0x3e89c3d1	0.2690721
225	0xbd46740f	-0.048450526
226	0x3d40f352	0.04710705
227	0xbdeada0a	-0.11467369
228	0x3e00b66a	0.12569585
229	0x3c191fb4	0.0093459375
230	0x3e8681a5	0.26270786
231	0x3e6e234e	0.23255655
232	0xbd1988df	-0.037484046
233	0x3e67f29d	0.22651143
234	0xbd3057aa	-0.043052353
235	0x3dd9a23c	0.10626647
236	0x3df5b86d	0.11998067
237	0xbdace60b	-0.08442315
238	0xbba2c495	-0.004967282
239	0xbc5b040a	-0.013367662
240	0x3e3e8d8d	0.18608685
241	0x3e3457bc	0.17611593
242	0xbf0d81cd	-0.55276185
243	0x3eb3bcfb	0.35105118
244	0xbda548a8	-0.08070499
245	0xbd4833d7	-0.048877563
246	0xbea460af	-0.32105014
247	0x3e5f79e0	0.21823835
248	0x3e72b185	0.23700531
249	0x3eb73485	0.35782257
250	0xbe05a955	-0.13052876
251	0x3d7b184e	0.061302476
252	0xbe052bf7	-0.13005053
253	0x3e132b98	0.14372098
254	0xbd24e2e9	-0.04025546
255	0xbb72fee2	-0.0037078192

fc1.bias f4 [32]
0	0xbde47bd2	-0.11156429
1	0xbf414b7d	-0.7550581
2	0xbe6b6074	-0.22986013
3	0xbe7439b7	-0.23850141
4	0xbe56171f	-0.20907257
5	0x3c37d85b	0.011221017
6	0xbf43327a	-0.76248896
7	0xbe03cfbb	-0.12872212
8	0x3d995888	0.07487589
9	0x3ea8d130	0.32972097
10	0x3f25f68a	0.64829314
11	0x3e1b6dfd	0.15178676
12	0xbdc00f9b	-0.093779765
13	0xbf04922a	-0.5178553
14	0xbed0e96f	-0.40803096
15	0xbdd01a54	-0.10161272
16	0x3e980405	0.29690567
17	0xbf0ce849	-0.5504194
18	0x3f2c9c24	0.6742575
19	0xbf1dc8ed	-0.61634713
20	0xbec74402	-0.38919073
21	0xbef65301	-0.48110202
22	0xbc59b844	-0.013288561
23	0xbf0d3313	-0.5515606
24	0xbe9a1a45	-0.30098167
25	0xbec201cb	-0.37891993
26	0xbf145a48	-0.5795026
27	0x3bbfc94c	0.005852854
28	0xbe906e76	-0.28209275
29	0xbcc655c8	-0.024210826
30	0xbe1020e1	-0.14075042
31	0xbf0064bc	-0.5015371

fc2.weight f4 [16, 32]
0	0x3e948fb7	0.29015896
1	0x3ebf31aa	0.37342578
2	0xbda7724d	-0.08176098
3	0x3e115178	0.14191234
4	0x3e4a14a9	0.19734444
5	0x3e677528	0.22603285
6	0x3f0d875d	0.5528467
7	0x3de902ee	0.11377512
8	0xbe7edfcf	-0.24890064
9	0xbe48af20	-0.19598055
10	0xbe9b265a	-0.30302697
11	0x3e6f0bd3	0.23344354
12	0x3e1f2344	0.15540797
13	0x3ea4186b	0.3204988
14	0x3ee8b96c	0.45453966
15	0x3e15e3df	0.14637707
16	0x3cde2b52	0.027120266
17	0x3ec42685	0.38310638
18	0x3e6da62d	0.23207922
19	0x3e8a6275	0.27028242
20	0x3d8b9196	0.06814878
21	0x3e9ff3ac	0.31240594
22	0xbd185dd2	-0.03719885
23	0x3eec0b53	0.4610239
24	0x3def487b	0.116837464
25	0x3e95755d	0.29191104
26	0x3e673b29	0.22581162
27	0xbc73f6fa	-0.014890427
28	0x3e9a7787	0.30169317
29	0x3db7bfbd	0.08972118
30	0xbe1a2923	-0.15054755
31	0x3e80e6d4	0.25176108
32	0x3ea4c0ba	0.3217829
33	0x3f01e8ef	0.50746053
34	0x3e42965d	0.19002672
35	0x3e455722	0.1927152
36	0xbde63bc0	-0.11241865
37	0x3d6ada15	0.057336885
38	0x3f18085e	0.5938777
39	0x3e835f96	0.25658864
40	0x3c6ba246	0.014381951
41	0x3db0082f	0.08595311
42	0xbcdc1f81	-0.026870491
43	0x3e267700	0.16256332
44	0x3d1b1a31	0.037866775
45	0x3ebde3b4	0.37087786
46	0x3e2bfac6	0.16794881
47	0x3e10c2a9	0.14136757
48	0xbd8fa3db	-0.07013675
49	0x3ece1d9e	0.4025697
50	0xbd7e368f	-0.06206375
51	0x3d916601	0.07099534
52	0x3e22b527	0.15889417
53	0x3f043869	0.51648575
54	0x3e34f2fe	0.17670819
55	0x3efd87b4	0.49517596
56	0x3e0d2ecc	0.13787383
57	0x3e9e0248	0.30861115
58	0x3ea2d374	0.3180195
59	0x3db4094a	0.08790834
60	0x3d8de7f6	0.06929009
61	0x3e0da066	0.13830718
62	0xbd6392d3	-0.055559944
63	0x3ebbedae	0.36704773
64	0x3d489533	0.048970412
65	0x3da25227	0.079258256
66	0xbe74604e	-0.23864862
67	0x3d8b0691	0.06788362
68	0xbe384756	-0.17995963
69	0xbdc5d7b9	-0.096602865
70	0x3da728f0	0.08162105
71	0x3b93ae95	0.004506896
72	0xbdf961e5	-0.12176875
73	0x3d1970a1	0.037460927
74	0xbe6eeebb	-0.23333256
75	0x3d3b46de	0.04572188
76	0x3da7ea06	0.08198933
77	0xbd9be9e7	-0.07612973
78	0xbda0445a	-0.07825537
79	0xbde94a5c	-0.11391136
80	0xbe35163f	-0.17684267
81	0xbe16c294	-0.14722663
82	0xbdd5dcdd	-0.10442517
83	0xbe6099a3	-0.21933608
84	0xbe5b725d	-0.21430345
85	0xbdf17e08	-0.11791617
86	0xbe4dc6ad	-0.2009532
87	0xbe31f70c	-0.17379397
88	0xbd832996	-0.06404416
89	0xbe23f4ab	-0.16011302
90	0x3dab2857	0.083573036
91	0xbe060ed2	-0.13091591
92	0xbe38c98b	-0.18045633
93	0xbde157e5	-0.11003093
94	0xbe59f200	-0.21283722
95	0x3c93ee47	0.018057955
96	0x3d9b13ac	0.075721115
97	0xbe34a2a8	-0.17640173
98	0xbe11f3f0	-0.14253211
99	0x3dabcc69	0.083885975
100	0xbe50d8b6	-0.20395169
101	0xbcd6da92	-0.02622727
102	0xbe5fb9d2	-0.21848229
103	0xbe6dbfe2	-0.23217729
104	0x3d3cc1b3	0.046083163
105	0xbe331e37	-0.17491995
106	0xbd39364d	-0.0452178
107	0xbdf4fc2e	-0.11962162
108	0xbda75891	-0.081711896
109	0xbe1ee787	-0.15518008
110	0x3d4aa6ee	0.049475603
111	0x3db040ad	0.08606086
112	0xbdc6b53a	-0.09702535
113	0xbe2d9d14	-0.16954452
114	0xbe774e39	-0.24150933
115	0x3da5f689	0.081036635
116	0xbc1c594e	-0.009542776
117	0xbbd804ad	-0.0065923543
118	0xbd30962a	-0.043111958
119	0xbaa6b8c8	-0.0012719864
120	0xbc3bf0e3	-0.011471006
121	0x3b87342b	0.004126092
122	0x3d064336	0.03277894
123	0xbd314710	-0.04328066
124	0x3dd81d73	0.10552492
125	0x3d1c4c1b	0.038158517
126	0xbdaddcf9	-0.08489413
127	0xbe2085ea	-0.15676084
128	0xbd50b148	-0.05095032
129	0x3d93db7e	0.07219599
130	0x3d4253d1	0.047443215
131	0xbe07a399	-0.13246001
132	0xbdbc80b8	-0.09204239
133	0x3c0d5834	0.008626986
134	0x3b551a71	0.003251698
135	0x3dcb95d0	0.09940684
136	0xbd8205d1	-0.06348766
137	0xbbc9edeb	-0.0061623952
138	0xbdc59ec4	-0.09649423
139	0xbe35ef9c	-0.17767185
140	0xbe045a0b	-0.12924974
141	0xbd366515	-0.044529993
142	0xbdb7d501	-0.08976174
143	0xbe5eb34e	-0.21748087
144	0xbcf142aa	-0.029450733
145	0xbbe4973c	-0.0069760364
146	0xbe3e2c8a	-0.18571678
147	0xbd521fd6	-0.051299892
148	0x3d26f5e4	0.040761843
149	0x3d040c65	0.032238383
150	0x3dca882b	0.09889253
151	0xbe0445a7	-0.12917195
152	0x3c499e93	0.012305873
153	0xbe52a1ea	-0.20569578
154	0xbda011c5	-0.07815889
155	0xbe2fca55	-0.17167027
156	0xbd80821c	-0.062748164
157	0x3d09d485	0.03364994
158	0x3ca2de46	0.019881379
159	0xbe1ee19d	-0.15515752
160	0x3ee778bc	0.452093
161	0x3f0c0cf1	0.54707247
162	0x3e88a6ee	0.26689857
163	0x3e6cf09a	0.23138657
164	0x3dd288ec	0.10280022
165	0x3d1ecc5d	0.038769115
166	0x3f3274f9	0.69709736
167	0x3e843799	0.25823668
168	0xbe40a00f	-0.18811058
169	0xbc68a1c1	-0.014198721
170	0xbe7f125b	-0.24909346
171	0x3e82e6c7	0.25566694
172	0x3e0f9cf0	0.1402471
173	0x3ef867e5	0.48516765
174	0x3ef28e84	0.47374356
175	0x3e09368c	0.13399714
176	0x3d02d9e8	0.031946093
177	0x3e912785	0.28350464
178	0x3c74572f	0.014913364
179	0x3e87fc1d	0.26559535
180	0x3ed05306	0.40688342
181	0x3ecb8a01	0.39753726
182	0xbdc33ff8	-0.095336854
183	0x3eee1b17	0.46505043
184	0x3d0b413a	0.03399775
185	0x3e931a5e	0.28731054
186	0x3ea60c55	0.32431284
187	0x3e4ba0e8	0.198856
188	0x3ec047e3	0.37554845
189	0x3deab0c0	0.11459494
190	0x3d064d26	0.03278842
191	0x3ee74ebb	0.45177254
192	0x3eb0fdad	0.3456854
193	0x3f066a2a	0.52505744
194	0x3de0d667	0.10978394
195	0x3e26438f	0.16236709
196	0xbd9f65f2	-0.077831164
197	0xbdd6a715	-0.10481087
198	0x3f616fc5	0.8806117
199	0x3e0cdd69	0.13756336
200	0xbe4f5b79	-0.20249738
201	0xb9963ba0	-0.00028654654
202	0xbf179029	-0.59204346
203	0x3d5ab8e5	0.053398985
204	0xbdcf20a3	-0.10113647
205	0x3e5e3902	0.21701434
206	0x3ee6838b	0.45022234
207	0x3e42c9ad	0.19022246
208	0xbf05dcf6	-0.52290285
209	0x3e85127a	0.2599066
210	0xbea3a87e	-0.31964487
211	0x3d187620	0.037222028
212	0x3eb4bae1	0.35298827
213	0x3ddbf3ec	0.10739884
214	0x3ce7856c	0.028261863
215	0x3ebb99dc	0.36640823
216	0xbc060560	-0.008179992
217	0x3dac43a1	0.08411337
218	0x3ee19d05	0.4406511
219	0x3e01c6e2	0.12673524
220	0x3e94fa81	0.2909737
221	0xbd9ad743	-0.07560589
222	0xbe6ce5ef	-0.23134588
223	0x3eb8cf89	0.36095837
224	0x3e9a9bf6	0.30197114
225	0x3efff9ed	0.49995366
226	0x3e0ee688	0.13955128
227	0x3e061e54	0.13097507
228	0xbdb12186	-0.08648972
229	0x3e2358c3	0.15951829
230	0x3f02542e	0.509097
231	0x3dcf600b	0.101257406
232	0xbe973e3a	-0.29539663
233	0xbe2a8d16	-0.16655383
234	0xbef0fb36	-0.4706666
235	0xbcc6761f	-0.024226246
236	0x3e11e524	0.14247566
237	0x3ea369e5	0.3191673
238	0x3eaab1ab	0.33338675
239	0x3dc2681e	0.09492515
240	0xbef8d5bc	-0.48600566
241	0x3ed444ea	0.41458827
242	0xbd5ed471	-0.05440182
243	0x3ebc95a8	0.3683293
244	0x3e3cc629	0.18434967
245	0x3e2ff6c1	0.17183973
246	0xbaf3716d	-0.0018573232
247	0x3eddaf8d	0.43297997
248	0xbdcdf4c2	-0.100564495
249	0x3e578b58	0.21049249
250	0x3ea9f3a5	0.331937
251	0x3e12ea05	0.14347084
252	0x3def090e	0.11671649
253	0xbe1ddcb2	-0.1541622
254	0xbede04e5	-0.4336311
255	0x3e9fac32	0.31186062

fc2.bias f4 [16]
0	0x3e13f9b2	0.1445072
1	0x3d985731	0.074385054
2	0x3d248a17	0.040170755
3	0xbd8a7e2c	-0.067623466
4	0xbd6383aa	-0.055545487
5	0xbe929e6c	-0.2863649
6	0xbe99c5c5	-0.300337
7	0xbdeaa6e6	-0.114576146
8	0xbeaefb37	-0.34176037
9	0xbe74dfd6	-0.23913512
10	0x3c8b2eac	0.016990028
11	0x3e3e1726	0.18563518
12	0x3d80ae09	0.062831946
13	0xbd6d0e54	-0.057874992
14	0xbcd7d8f7	-0.026348574
15	0xbe3e8efc	-0.18609232

fc3.weight f4 [1, 16]
0	0xbe972c2d	-0.2952589
1	0xbe81eaf0	-0.25374556
2	0x3e05b4c5	0.1305724
3	0xbdab3bad	-0.083609916
4	0x3e2cae84	0.16863447
5	0xbefc8b11	-0.4932485
6	0xbecfdbbb	-0.4059733
7	0xbe8be306	-0.27321643
8	0xbf1f1f6c	-0.6215732
9	0x3dece9a7	0.11568003
10	0x3dd16d8b	0.10225972
11	0xbe900230	-0.2812667
12	0x3e17a5d1	0.14809348
13	0x3e2d2f95	0.16912682
14	0xbee9789e	-0.45599836
15	0xbe702208	-0.23450482
