Deep Q-Network/checkpoint.pth (torch_old, 20909 bytes, 6 tensors)

fc1.weight f4 [64, 8]
0	0x3ddbd8e1	0.10734726
1	0xbe0b4dd5	-0.1360391
2	0xbf1665b6	-0.5874895
3	0xbed3c9d6	-0.41364926
4	0x3ef39f3a	0.47582418
5	0x3eb0d5a1	0.34537986
6	0x3e36c2e6	0.17847785
7	0x3eff9150	0.49915552
8	0xbd81d361	-0.063391455
9	0xbe19fc99	-0.15037765
10	0xbe52c3d9	-0.20582522
11	0x3e0e11c3	0.13873963
12	0xbd87493b	-0.066057645
13	0xbf07be9e	-0.53025234
14	0xbf1d1eb4	-0.61374974
15	0x3c34d4f0	0.011037096
16	0x3e6879c1	0.22702695
17	0x3e69b922	0.22824529
18	0x3ddade6a	0.10686953
19	0xbe57e0b9	-0.21081819
20	0x3d715a82	0.058924206
21	0x3f8f68ed	1.1203896
22	0xbe08d556	-0.13362631
23	0x3e572464	0.21009976
24	0xbd185cb7	-0.037197795
25	0x3ee5d769	0.44890907
26	0x3fc02c9c	1.5013614
27	0xbf72bcf1	-0.9481955
28	0xbf496854	-0.7867482
29	0xbe108725	-0.14114054
30	0xbeb8d03c	-0.3609637
31	0x3e375972	0.17905214
32	0xbe409d73	-0.18810062
33	0xc0072f92	-2.1122785
34	0xbf87ab93	-1.0599235
35	0xbf578e4e	-0.84201515
36	0x3f0a5016	0.5402845
37	0x3e3e4788	0.18581975
38	0x3e35d959	0.17758693
39	0x3e8fb3df	0.28066918
40	0xbddadb32	-0.106863394
41	0x3e6c59d4	0.23081142
42	0xbdf83cca	-0.121209696
43	0xbd7bba17	-0.061456766
44	0xbf7a4bc6	-0.9777187
45	0xbe8f5dd3	-0.2800127
46	0x3e198ba7	0.1499468
47	0x3ee348aa	0.44391376
48	0x3e3aba17	0.1823505
49	0xbd9be000	-0.07611084
50	0xbe952713	-0.29131374
51	0xbeeb1739	-0.45916155
52	0x3ef58445	0.47952476
53	0x3e37560f	0.17903922
54	0x3deddd6c	0.116144985
55	0xbf3ac6a1	-0.72959334
56	0x3e9a7fbe	0.30175585
57	0xc014f011	-2.3271525
58	0xbf1aee1f	-0.60519594
59	0xbf793772	-0.9735023
60	0x3eb301cc	0.34962308
61	0x3d8ba6b9	0.06818909
62	0x3e40b296	0.18818125
63	0x3d7818e3	0.06057061
64	0xbe6ec48a	-0.23317161
65	0x3d9e349b	0.077248774
66	0x3e04036e	0.12891933
67	0xbe9fe64f	-0.312304
68	0x3f37e468	0.71832895
69	0x3f639463	0.88898295
70	0xbfa91077	-1.320815
71	0xbf3d3499	-0.7390838
72	0x3e34e64f	0.17665981
73	0x3f886b8f	1.0657824
74	0x3ee5f72e	0.44915146
75	0x3fc7f09d	1.5620304
76	0xbf4b5060	-0.7941952
77	0xbf447497	-0.767404
78	0xbe6b5962	-0.22983316
79	0xbdabdf8a	-0.08392246
80	0xbe8d1320	-0.27553654
81	0x3f6816d5	0.9065984
82	0xbd959792	-0.073043
83	0xbf94e5b0	-1.1632595
84	0x3e31e466	0.17372283
85	0xbe19eb18	-0.15031087
86	0x3f049de7	0.5180344
87	0xbdac3a2a	-0.084095314
88	0x3dc3aa39	0.09553952
89	0x3eecc4e3	0.46243963
90	0x3ea2996b	0.31757674
91	0x3dc0ceaf	0.09414422
92	0xbe7aae71	-0.24480607
93	0x3ef0d619	0.47038344
94	0x3e4208a4	0.18948609
95	0xbeee889e	-0.46588606
96	0xbe0b87ca	-0.13626018
97	0x3efd16e9	0.49431542
98	0x3f05d06f	0.5227117
99	0xbfae117b	-1.3599085
100	0x3f54ed75	0.8317483
101	0x3f0230d8	0.5085578
102	0xbe87f51f	-0.265542
103	0x3d5d5be0	0.054042697
104	0xbf33e547	-0.70271724
105	0xbf2adcf0	-0.66743374
106	0xbf1d09a9	-0.61342865
107	0xbecc477f	-0.39898297
108	0x3e47b50c	0.19502658
109	0x3e5bbe7a	0.2145938
110	0x3e1073ac	0.14106625
111	0x3ef81d63	0.4845992
112	0xbe284b99	-0.16435088
113	0x3f68342d	0.90704614
114	0x3eba4655	0.36381784
115	0xbfa3097c	-1.2737269
116	0xbeb687ca	-0.35650474
117	0x3e4c16bc	0.19930547
118	0x3eadc23f	0.3393726
119	0xbd1f3fdc	-0.03887926
120	0x3e4b1b6e	0.19834682
121	0x3c237920	0.009977609
122	0xbdad6fb4	-0.08468571
123	0x3ec4f1f7	0.38465855
124	0x3e874d32	0.26426083
125	0xbf435c19	-0.76312405
126	0xbf5fcc8c	-0.8742149
127	0xbdf87c75	-0.12133113
128	0xbebebe93	-0.37254772
129	0xbf6713a3	-0.9026434
130	0xbd23425e	-0.039858215
131	0xbf2aa70f	-0.6666116
132	0xbf212f03	-0.6296236
133	0xbea28c29	-0.3174756
134	0x3e324ab5	0.17411311
135	0x3e6fb4f6	0.23408875
136	0xbe27c609	-0.16384138
137	0xc00131c1	-2.0186617
138	0x3f28bfff	0.6591796
139	0x407a1984	3.9078074
140	0x3eaa5594	0.33268416
141	0x3e50b4ba	0.20381442
142	0x3f0df952	0.5545856
143	0xbd7cd348	-0.06172493
144	0xbe9aa0b8	-0.30200744
145	0xbdda47f6	-0.10658257
146	0x3e8eaee1	0.27867797
147	0xbebbf4db	-0.36710247
148	0xbe67ac97	-0.22624432
149	0xbef38155	-0.4755961
150	0xbf5333e0	-0.8250103
151	0x3e9ea49e	0.30984968
152	0x3b5d3e00	0.0033758879
153	0x3f3ac29c	0.729532
154	0xbe6ffdfe	-0.23436734
155	0xbf912d43	-1.1341938
156	0x3eea81a4	0.45802033
157	0xbec77212	-0.38954216
158	0x3f33ff12	0.7031108
159	0x3dcdf8dd	0.100572325
160	0xbf68c914	-0.9093182
161	0xbf86dfef	-1.0537089
162	0xbfade502	-1.3585513
163	0x3cd90842	0.026493195
164	0x3dee4836	0.11634867
165	0xbdb533bd	-0.08847759
166	0xbbf4896e	-0.007462672
167	0x3ecd04ac	0.40042627
168	0xbdb8c8c3	-0.09022667
169	0xba9df4bb	-0.0012051085
170	0x3f173cc7	0.59077114
171	0xbeecd406	-0.4625551
172	0x3fa72a22	1.3059733
173	0x3e813c51	0.2524133
174	0xbdfe4f8a	-0.124175146
175	0x3e9582b4	0.2920128
176	0xbd9da591	-0.07697595
177	0xc0166dfe	-2.3504634
178	0x3fed6d05	1.8548895
179	0xbf744e9b	-0.9543244
180	0xbf0e9338	-0.5569339
181	0xbd881f26	-0.06646566
182	0x3e4600bf	0.19336222
183	0x3e4a9f2a	0.19787279
184	0x3f220974	0.63295674
185	0xbfef378a	-1.8688824
186	0x3f7f8062	0.9980527
187	0xbd32d8c6	-0.043663763
188	0xbf6eae74	-0.93234944
189	0x3de63015	0.1123964
190	0x3e0e2910	0.13882852
191	0x3e89439a	0.26809388
192	0xbf1c3464	-0.6101744
193	0xbe22280b	-0.15835588
194	0xbf842424	-1.0323529
195	0xbf5605cf	-0.83602613
196	0x3ec7ee96	0.39049214
197	0x3eb2d81c	0.34930503
198	0xbe368278	-0.17823207
199	0xbeaacb5f	-0.33358285
200	0x3e963b17	0.29341957
201	0xbfbf3b2e	-1.4939935
202	0xbea8a148	-0.32935548
203	0xbf022521	-0.50837904
204	0x3c15520d	0.009113801
205	0x3e6f0bc1	0.23344328
206	0x3dff1496	0.12455098
207	0x3ee3a3af	0.44460818
208	0xbe89bc30	-0.26901388
209	0xbfa45d42	-1.284096
210	0x3e1e26df	0.15444516
211	0xbf9edcf5	-1.2411181
212	0xbe623ebd	-0.22094245
213	0x3c1ad9e8	0.009451367
214	0x3da2063c	0.07911345
215	0x3de92bb7	0.11385291
216	0x3e77d435	0.24202044
217	0xc00daeaf	-2.2137868
218	0x3f2e0368	0.6797395
219	0xbefa65e2	-0.48905855
220	0x3f2eede2	0.6833173
221	0x3e96aaea	0.29427272
222	0x3ca74029	0.020416336
223	0x3cd1ff53	0.025634443
224	0xbe6bea8a	-0.23038688
225	0x3f710fa0	0.94164467
226	0xbfc60f05	-1.5473334
227	0xbf72052f	-0.9453916
228	0x3e834757	0.25640365
229	0x3d830e5f	0.063992254
230	0x3e779109	0.2417642
231	0x3e79f595	0.24410088
232	0xbe136ee7	-0.14397775
233	0xbdd8c7c7	-0.105849795
234	0x4005f82d	2.0932724
235	0xbf49bb19	-0.78801113
236	0x3dcf0dbd	0.10110042
237	0x3e8a629b	0.27028355
238	0x3e374aa3	0.17899565
239	0x3e3ab2f4	0.18232328
240	0xbd24e1a5	-0.040254254
241	0x3e0a7c2b	0.13523929
242	0x3ee549fc	0.44783008
243	0xbf1e00e3	-0.61720103
244	0xbeb2fad2	-0.34956986
245	0xbec1fe7d	-0.37889472
246	0x3f12850c	0.57234263
247	0xbc9cdce4	-0.019148298
248	0x3e70e13d	0.23523422
249	0xc003e287	-2.0607011
250	0x3d06fb3b	0.032954436
251	0xbe0ee8e6	-0.13956031
252	0x3f87a959	1.0598556
253	0xbdfbe776	-0.12300007
254	0xbe925558	-0.28580737
255	0xbe84d9bd	-0.2594737

fc1.bias f4 [64]
0	0xbea2b569	-0.3177903
1	0xbf716d7c	-0.94307685
2	0xbe2873e8	-0.16450465
3	0x3e315659	0.17318095
4	0xbeed171c	-0.46306694
5	0xbe596cb3	-0.21232872
6	0x3e926884	0.28595364
7	0xbe7003fe	-0.23439023
8	0x3d4eb2fc	0.05046366
9	0x3ea875dd	0.32902423
10	0x3f72d6d1	0.94859034
11	0xbf074433	-0.5283844
12	0x3e4f826b	0.20264594
13	0xbe9f0f57	-0.3106639
14	0x3f1df4b1	0.61701494
15	0xbf76d06f	-0.96411794
16	0xbe1b20c2	-0.15149215
17	0xbef9d4fe	-0.48795313
18	0x3ecd79da	0.40132028
19	0x3f80b3c1	1.0054857
20	0xbe6c483b	-0.23074429
21	0xbe31f352	-0.17377976
22	0xbed006de	-0.4063024
23	0xbee900a1	-0.45508292
24	0xbf02dfae	-0.5112256
25	0xbe7ccdf8	-0.24687946
26	0xbe9839c0	-0.2973156
27	0xbed703e8	-0.41995168
28	0x3f2f97ae	0.6859082
29	0x3e2edfa2	0.17077497
30	0xbe35f4ec	-0.17769212
31	0x3ec656fa	0.38738233
32	0xbec43273	-0.3831974
33	0x3f0959d6	0.53652704
34	0x3eb99411	0.36245778
35	0x3e6682aa	0.22510782
36	0x3e1ce505	0.15321739
37	0x3ec350f5	0.38147703
38	0xbeabbe97	-0.33543846
39	0xbe4bd780	-0.19906425
40	0x3f12c806	0.5733646
41	0xbea75b70	-0.3268695
42	0x3db81921	0.08989168
43	0x3d2fc552	0.04291279
44	0x3d381f97	0.044952
45	0xbe04ff19	-0.12987937
46	0x3eff425d	0.4985532
47	0xbdbaaa6e	-0.09114538
48	0x3f0c48fa	0.54798853
49	0xbecec005	-0.40380874
50	0x3eb8f8d1	0.36127332
51	0x3f2e494d	0.680806
52	0xbcef846d	-0.02923795
53	0xbdb4838e	-0.088141546
54	0xbe55c55d	-0.2087607
55	0x3d532b0c	0.051554725
56	0xbda1e5fd	-0.07905195
57	0x3ca1da7c	0.019757502
58	0xbe41dc40	-0.18931675
59	0x3f273fa4	0.6533148
60	0xbe1c10ff	-0.15240858
61	0xbe633ee1	-0.22191955
62	0xbd9fabc4	-0.077964336
63	0xbd9f4817	-0.07777422

fc2.weight f4 [64, 64]
0	0xbd1b694d	-0.03794222
1	0x3ea616a4	0.32439148
2	0x3e7b3979	0.24533643
3	0x3ed81c76	0.42209214
4	0x3eb7e5cb	0.35917506
5	0x3d934fe4	0.07192972
6	0x3cef28dd	0.02919429
7	0x3e3b251c	0.18275875
8	0x3dcc98ae	0.09990059
9	0x3f48e781	0.78478247
10	0xbd67e617	-0.056615915
11	0x3e5e483c	0.21707243
12	0x3eeef0cf	0.46668097
13	0x3e985d13	0.2975851
14	0xbbe09ba9	-0.0068544936
15	0x3f015215	0.5051587
16	0x3d66d6a7	0.056357052
17	0x3fb43141	1.4077531
18	0x3ed36bff	0.41293332
19	0xbd60ef43	-0.054915678
20	0x3e200b8b	0.15629403
21	0x3e88a65f	0.2668943
22	0x3fe1f88d	1.7653977
23	0x3f4ca2d1	0.7993594
24	0x3f25f63f	0.64828867
25	0xbd418b51	-0.047252003
26	0x3f4ab2f3	0.79179305
27	0x3ed065ea	0.40702754
28	0xbde5102e	-0.11184727
29	0xbf685f81	-0.9077073
30	0x3e0e51bb	0.13898365
31	0xc0218b85	-2.5241406
32	0x3d96e4e8	0.07367879
33	0x3f10fed1	0.5663882
34	0xbd34ca21	-0.044138078
35	0x3eef8325	0.46779743
36	0xbf385a26	-0.72012556
37	0xbe764bb4	-0.24052316
38	0x3d359d30	0.04433936
39	0x3fe7cee9	1.8110019
40	0x3dcc40eb	0.099733196
41	0x3e8d67f0	0.2761836
42	0x3efd8725	0.4951717
43	0xbf4710c3	-0.7775995
44	0x3e977356	0.29580182
45	0x3eb79ed5	0.35863367
46	0x3f21b73c	0.6317022
47	0x3cc0f8c2	0.023556117
48	0x3ea40d25	0.32041278
49	0x3f2c7415	0.6736463
50	0x3d49bb9d	0.049251188
51	0x3d84a3ff	0.06476592
52	0x3e5cf857	0.21579109
53	0x3ebd9427	0.37027094
54	0x3eab99d6	0.33515805
55	0xbf22b209	-0.6355291
56	0x3da51222	0.08060099
57	0xbd8b0cad	-0.06789527
58	0xbde82235	-0.113346495
59	0x3e721aa8	0.23642981
60	0x3c35626d	0.01107083
61	0x3dc1e8fd	0.09468267
62	0xbe5b063e	-0.213891
63	0x3f33db84	0.7025683
64	0xbbbf72b9	-0.0058425334
65	0x3ef17c17	0.47164986
66	0x3e455cf9	0.19273748
67	0xbd2eaf6d	-0.042647768
68	0xbd0f85be	-0.035039656
69	0x3e80e7a8	0.2517674
70	0x3e35b841	0.17746069
71	0xbcf0c828	-0.029392317
72	0x3e2615cd	0.16219254
73	0x3eba6e70	0.36412382
74	0x3dc15539	0.09440083
75	0x3d67f888	0.056633502
76	0x3eeb3b46	0.4594366
77	0x3e427e5b	0.18993513
78	0xbd96318a	-0.073336676
79	0x3f1d6d4e	0.6149491
80	0xbdcfe3e6	-0.1015089
81	0x3f401f84	0.7504809
82	0x3e11798f	0.14206527
83	0x3d7636fc	0.06011103
84	0x3e9cc028	0.30615354
85	0xbdcad345	-0.09903578
86	0xbdd63750	-0.10459769
87	0xbf58e974	-0.8473122
88	0x3f42ec69	0.76141983
89	0xbdd6e47c	-0.10492799
90	0x3eb7ea34	0.3592087
91	0x3e89cd94	0.26914656
92	0xbcfdab82	-0.03096557
93	0xbf67af13	-0.9050152
94	0xbe8df8ad	-0.27728787
95	0xc0040457	-2.062765
96	0x3e226050	0.15857053
97	0x3f342d03	0.7038118
98	0x3dad0b38	0.084494054
99	0x3f19651f	0.59919924
100	0xbf4372ff	-0.76347345
101	0xbf567457	-0.8377127
102	0x3daf4fca	0.085601404
103	0x3f0bacbb	0.5456044
104	0x3e9ea7d0	0.30987406
105	0xbe4a6165	-0.19763716
106	0x3e8864e9	0.26639488
107	0xbfc29263	-1.5200924
108	0x3e5ad98e	0.21372053
109	0xbd329e53	-0.04360802
110	0x3ef14cb9	0.47128847
111	0x3e0e2e58	0.13884866
112	0x3ee367d8	0.44415164
113	0x3f00b803	0.5028078
114	0x3cf39f9d	0.029739195
115	0x3d9e0855	0.07716433
116	0x3ebc4b4e	0.36776203
117	0x3f731677	0.94956154
118	0xbe071f27	-0.13195477
119	0xbf7e4bb8	-0.9933429
120	0x3e921012	0.28527886
121	0xbf387939	-0.7205997
122	0xbf0a35ee	-0.5398854
123	0x3e737c90	0.23777986
124	0x3d68016e	0.05664199
125	0x3c8b673f	0.017017005
126	0xbeb2fb24	-0.3495723
127	0x3f077c53	0.5292408
128	0xbdfdb91a	-0.12388821
129	0x3ef43168	0.47693944
130	0x3dc5dad7	0.09660881
131	0x3f05ba03	0.52236956
132	0x3f3d8ea8	0.740458
133	0x3e349b67	0.17637406
134	0x3d918742	0.071058765
135	0x3e1bbb3a	0.1520814
136	0xbebbfb95	-0.3671538
137	0x3f7cfb77	0.98821205
138	0x3e288da8	0.16460288
139	0xbd4a34e5	-0.04936685
140	0x3cbd6e5b	0.02312391
141	0x3dbc3513	0.091898106
142	0x3e80af90	0.25133944
143	0x3f15e293	0.5854885
144	0xbc7d0bea	-0.015444735
145	0x3f9c0df2	1.2191756
146	0x3e9e3651	0.30900815
147	0xbd61dbdc	-0.055141315
148	0xbe130792	-0.14358357
149	0x3e21e021	0.15808155
150	0x3f9ae647	1.2101525
151	0x3f504271	0.8135138
152	0xbd929929	-0.07158119
153	0xba887411	-0.0010410567
154	0x3eec7055	0.46179453
155	0x3f322ef1	0.69602877
156	0xbd1b357d	-0.037892807
157	0xbf1380b2	-0.5761825
158	0xbe4976d0	-0.1967423
159	0xc016fb36	-2.3590827
160	0xbdafd248	-0.0858503
161	0x3f33f11d	0.70289785
162	0x3e4652da	0.19367543
163	0xbd9ab27a	-0.07553573
164	0xc00451d9	-2.0674956
165	0xbf22f419	-0.63653713
166	0x3dcaf7cc	0.09910545
167	0x3fa30dea	1.2738621
168	0xbe1525ae	-0.14565155
169	0x3effc342	0.49953657
170	0x3e90b4e8	0.2826302
171	0xbf3206cb	-0.69541615
172	0xbd897012	-0.06710829
173	0xbe465842	-0.19369605
174	0x3eec9be1	0.46212676
175	0xbdacf992	-0.08446039
176	0x3ee4b3a6	0.4466831
177	0x3f08d664	0.53452134
178	0x3c9ada5a	0.018902946
179	0x3c5a3a17	0.013319514
180	0x3cd1aea8	0.025595978
181	0x3ebb1f0f	0.36547133
182	0x3d19ff8a	0.037597217
183	0xbf44f860	-0.7694149
184	0xbe9e5f56	-0.3093211
185	0xbd847473	-0.064675234
186	0xbe075f87	-0.13220035
187	0x3ef61452	0.48062378
188	0xbe25b0c2	-0.16180709
189	0xbe131735	-0.14364322
190	0xbe449b7b	-0.19199936
191	0x3f7328f1	0.94984347
192	0x3dd70d3c	0.10500571
193	0x3ea4e3b6	0.3220498
194	0x3e4c9530	0.19978786
195	0x3e7e2a24	0.24820763
196	0x3f37e9d4	0.7184117
197	0x3e34280e	0.17593405
198	0x3ec70c90	0.38876772
199	0x3f0ca1f0	0.54934597
200	0x3f2562b8	0.6460376
201	0x3e33140c	0.17488116
202	0x3e733599	0.23750915
203	0x3ec9a268	0.3938172
204	0x3ee67676	0.45012254
205	0x3ed93869	0.4242585
206	0x3e06665c	0.13124985
207	0x3edc0255	0.4297053
208	0x3e4ac866	0.19803008
209	0x3ee9c4da	0.45657998
210	0x3ea63a55	0.3246638
211	0xbd92a538	-0.07160419
212	0x3f27aece	0.65501106
213	0x3f0766a0	0.5289097
214	0x3e9c4f3e	0.30529207
215	0x3e541f22	0.20715001
216	0x3f9d3ebf	1.2284774
217	0x3e1c6ca7	0.15275823
218	0x3f786b91	0.97039133
219	0x3f25a609	0.64706475
220	0x3e3f4c2d	0.18681403
221	0xbf46d081	-0.776619
222	0xbe73367f	-0.23751257
223	0xbfcc6500	-1.5968323
224	0x3e9f74d9	0.31143835
225	0x3da1b706	0.07896237
226	0x3f0a300c	0.53979564
227	0x3dd7c726	0.105360314
228	0xbf059808	-0.52185106
229	0xbf2b0e59	-0.6681877
230	0x3dfe9006	0.12429814
231	0x3f0d9b99	0.5531555
232	0x3e255ff7	0.16149889
233	0x3f2d3e85	0.6767352
234	0x3d6044f2	0.05475325
235	0xbf0d27cd	-0.55138856
236	0xbda8eb34	-0.082479864
237	0x3ec3c2dd	0.38234606
238	0x3ef93e9b	0.48680577
239	0x3ea0143e	0.31265444
240	0xbee819b8	-0.45332122
241	0x3f78f783	0.9725267
242	0xbeb35663	-0.35026845
243	0x3d8a78c2	0.06761314
244	0x3ec31417	0.38101265
245	0x3f0abcad	0.54194146
246	0x3ee5b097	0.4486129
247	0xbf9cc9d5	-1.2249094
248	0x3f977fad	1.1835839
249	0x3e292c71	0.1652086
250	0xbd248946	-0.040169977
251	0x3d463456	0.048389755
252	0x3e569ed6	0.20959029
253	0x3d0532d3	0.032519173
254	0x3e3eda32	0.18637922
255	0x3f0ec2f9	0.55766255

fc2.bias f4 [64]
0	0xbe2e73d2	-0.1703637
1	0xbd8b3b4c	-0.06798419
2	0xbe2be694	-0.16787177
3	0x3c949b4f	0.018140463
4	0x3d85869c	0.06519815
5	0xbc5f22ec	-0.013619166
6	0xbd09f9b6	-0.03368541
7	0xbde57944	-0.1120477
8	0x3edc5c3a	0.43039113
9	0xbdce5827	-0.100754075
10	0xbdd2ac36	-0.10286753
11	0xbe034c35	-0.1282204
12	0xbe24ee8b	-0.16106622
13	0xbdf37715	-0.118879475
14	0x3e86b804	0.26312268
15	0x3fb073b9	1.3785316
16	0xbca463ed	-0.02006718
17	0xbe170890	-0.1474936
18	0x3ee0f19a	0.43934327
19	0xbd887882	-0.0666361
20	0xbc8b93d0	-0.017038256
21	0x3ec8b6ec	0.39202058
22	0xbe64de4a	-0.22350422
23	0xbdfea4cf	-0.124337785
24	0xbe284ba5	-0.16435106
25	0xbc8791db	-0.016549041
26	0xbf481c58	-0.7816825
27	0xbd8a5002	-0.067535415
28	0xbc257976	-0.010099759
29	0xbd6a0d81	-0.057141785
30	0x3f2b9f9c	0.6704042
31	0x3ed90618	0.42387462
32	0x3d172f42	0.036910303
33	0x3cdd8e64	0.027045436
34	0xbe65df66	-0.22448501
35	0xbdf91940	-0.12163019
36	0x3e0714b9	0.13191499
37	0xbd1da543	-0.038487684
38	0xbe287f5e	-0.16454837
39	0x3d42a757	0.04752287
40	0xbda4057e	-0.0800886
41	0x3e40b2b0	0.18818164
42	0xbdd51862	-0.10405041
43	0x3d009f80	0.03140211
44	0xbde9e3dc	-0.11420414
45	0x3da115d1	0.07865489
46	0xbc98d7af	-0.018657533
47	0xbec653e9	-0.38735893
48	0xbe32f9f7	-0.17478167
49	0xbd61b314	-0.055102423
50	0xbc095dbe	-0.008384166
51	0xbe9d7f3e	-0.3076114
52	0x3f4d3cc7	0.80170864
53	0xbdbedf1f	-0.09319901
54	0x3d14868f	0.036261138
55	0x3dc78a5f	0.09743189
56	0x3e07d7b4	0.13265878
57	0x3c4ac97c	0.012377139
58	0x3efc1e65	0.4924194
59	0xbd7fb234	-0.062425807
60	0xbe2abd44	-0.16673762
61	0xbe9ac956	-0.30231732
62	0x3fa807ea	1.3127415
63	0xbda6a687	-0.08137231

fc3.weight f4 [4, 64]
0	0xbfa42ec4	-1.2826772
1	0xbe4e55c1	-0.201499
2	0xbf5df37d	-0.8669966
3	0xbf339fd8	-0.7016578
4	0xbe73dbcf	-0.23814319
5	0xbf035def	-0.51315206
6	0x3d4e0943	0.0503018
7	0xbf1d2937	-0.61391014
8	0x401e8016	2.4765677
9	0x3d1d0a4c	0.038339898
10	0xbf309927	-0.6898369
11	0xbd8d2102	-0.06891061
12	0xbd518466	-0.051151656
13	0xbeaccc11	-0.3374944
14	0x3eaab9dc	0.33344924
15	0x3fcd3a1c	1.6033359
16	0x3d911214	0.07083526
17	0xbf91895d	-1.1370045
18	0xbf899bcd	-1.0750672
19	0xbf3adfd3	-0.7299778
20	0xbede1df7	-0.43382236
21	0x4053fb45	3.3122113
22	0xbf252be5	-0.645201
23	0x3b921767	0.004458356
24	0xbf3dd616	-0.74154794
25	0x401709c3	2.3599708
26	0xbf3ec16d	-0.74513894
27	0xbf95312f	-1.1655635
28	0xbf6891b7	-0.90847343
29	0xbf5e5b90	-0.86858463
30	0x3fd7a577	1.6847371
31	0x3ee67434	0.4501053
32	0xbedfc2f5	-0.43703428
33	0xbf2767dc	-0.6539285
34	0xbf34c24f	-0.7060899
35	0xbddc4068	-0.10754472
36	0xbe0f35e8	-0.13985407
37	0xbed91e35	-0.4240586
38	0xbf5c152a	-0.85969794
39	0xbf4ccfd4	-0.8000462
40	0xbf08c756	-0.5342916
41	0xbce985c1	-0.028506162
42	0xbf4eaf10	-0.80735874
43	0xbf626ccf	-0.8844728
44	0x3d1f4e2d	0.038892914
45	0xbc8cfc09	-0.017210023
46	0xbe6e81f6	-0.23291764
47	0xbad22e3b	-0.0016035506
48	0xbf4c4ca9	-0.79804474
49	0xbf07c8be	-0.53040683
50	0xbe910c3a	-0.2832964
51	0xbf8f5244	-1.119698
52	0x3f022a22	0.5084554
53	0xbf8d91fe	-1.1060178
54	0xbf6fc673	-0.93662184
55	0x3f67c692	0.9053737
56	0xbf818355	-1.0118204
57	0xbed765f9	-0.42069986
58	0x3f9952ed	1.1978432
59	0xbeaff165	-0.34363857
60	0xbdc9031a	-0.09815045
61	0xbf6b6145	-0.91945297
62	0x3fce32e7	1.6109284
63	0xbf5b7f08	-0.8574071
64	0xbf0b2e45	-0.54367477
65	0xbf420e7b	-0.75803345
66	0xbf2c194f	-0.6722612
67	0xbf09f435	-0.53888255
68	0xbee813b8	-0.45327544
69	0xbf1fdf40	-0.6245003
70	0xbc89e784	-0.016834028
71	0xbeefc7df	-0.46832177
72	0x4019f1f0	2.4053917
73	0xbd845297	-0.06461065
74	0xbf67f15d	-0.90602666
75	0xbd10bd07	-0.03533652
76	0x3d762581	0.06009436
77	0xbf1f9895	-0.62342197
78	0x3effb989	0.4994624
79	0x3fccb9b0	1.5994167
80	0xbc6126c8	-0.013742156
81	0xbf2b266b	-0.66855496
82	0xbf3fb1fe	-0.7488097
83	0xbf2080e1	-0.62696654
84	0xbed07225	-0.40712085
85	0x406f254c	3.7366514
86	0xbf227424	-0.63458467
87	0xbd7a1240	-0.06105256
88	0xbf0c22b9	-0.5474048
89	0x3fee19f8	1.8601675
90	0xbf9dd252	-1.232981
91	0xbef06977	-0.46955463
92	0xbf554e7d	-0.8332289
93	0xbf0ac162	-0.5420133
94	0x3fbcdc5c	1.4754748
95	0x3ec3a835	0.3821427
96	0xbfa10731	-1.258032
97	0xbf468f07	-0.7756199
98	0xbf0d423c	-0.5517919
99	0x3dff87cc	0.12477073
100	0xbf330606	-0.69931066
101	0xbf40aa93	-0.75260276
102	0xbf1d3b71	-0.61418825
103	0xbea0aee7	-0.3138344
104	0xbf23a0bb	-0.6391713
105	0xbf61dc8e	-0.88227165
106	0xbf1da187	-0.61574596
107	0xbeb4d978	-0.35322165
108	0xbdcd0a33	-0.10011711
109	0x3c2f1a60	0.010687441
110	0xbec9dbc0	-0.39425468
111	0xbda69b8e	-0.081351385
112	0xbf0c98db	-0.5492074
113	0xbf63fba9	-0.8905588
114	0xbf57ba75	-0.84268886
115	0xbf2c20ff	-0.6723785
116	0xbe2bb6c9	-0.16768946
117	0xbf393143	-0.7234079
118	0xbf2a1acb	-0.6644713
119	0x3f19f4ea	0.60139334
120	0xbf229c56	-0.635198
121	0xbf44a6f0	-0.76817226
122	0x3f9bab1a	1.2161591
123	0xbf348b5b	-0.7052514
124	0xbd6ccc06	-0.05781176
125	0xbefd8709	-0.49517086
126	0x3fcbbffd	1.5917965
127	0xbf15b3ee	-0.58477676
128	0xbf1de364	-0.61675096
129	0xbf542e26	-0.82882917
130	0xbf689834	-0.90857244
131	0xbeb0b8ff	-0.3451614
132	0x3d21dc4c	0.039516732
133	0xbeecd51b	-0.46256337
134	0x3c82a9a7	0.015950037
135	0xbf26fe7a	-0.6523205
136	0x400a2743	2.1586463
137	0x3d98ddaa	0.07464154
138	0xbeabf8e1	-0.33588317
139	0x3d2ca4bd	0.042149294
140	0x3d25b7f3	0.04045863
141	0xbf848da0	-1.035572
142	0xbf900c8c	-1.1253829
143	0x3fef8bc5	1.8714529
144	0xbbadc341	-0.005302817
145	0xbf2d072f	-0.67589086
146	0xbf56705f	-0.83765215
147	0xbf32cc9e	-0.6984347
148	0x3c51a061	0.012794585
149	0x402abb46	2.6676803
150	0xbf2660a1	-0.64991194
151	0x3c5fc318	0.013657354
152	0xbf1840c4	-0.59473825
153	0x40066014	2.0996141
154	0xbfd22390	-1.6417103
155	0xbf3dd66d	-0.7415531
156	0xbf1fb048	-0.6237836
157	0xbf0f2f56	-0.55931604
158	0x3ff5d43a	1.9205391
159	0xbf0cd138	-0.5500674
160	0xbee8ca84	-0.45467007
161	0xbf368157	-0.71291107
162	0xbf04e720	-0.5191517
163	0xbd0eacc3	-0.034832727
164	0x3c5bdc57	0.013419232
165	0xbf13f767	-0.5779938
166	0xbf2e31e3	-0.6804487
167	0xbf669f44	-0.9008677
168	0xbf1b8f8b	-0.60765904
169	0xbfaf608b	-1.3701338
170	0xbf56e351	-0.8394061
171	0xbf386c6b	-0.7204043
172	0x3c7ad420	0.015309364
173	0xbc87948b	-0.016550323
174	0xbea0671b	-0.31328663
175	0xbf3dabd1	-0.74090296
176	0xbf0bc2df	-0.54594225
177	0xbf7e2820	-0.99279976
178	0xbf870a65	-1.0550047
179	0xbf3d375b	-0.7391259
180	0xbf807b32	-1.0037596
181	0xbf390e0c	-0.7228706
182	0xbf0e73ae	-0.55645263
183	0xbf2bafd7	-0.67065185
184	0xbe689cdd	-0.22716089
185	0xbf982267	-1.1885499
186	0x3faf3359	1.3687545
187	0xbeaea613	-0.3411108
188	0x3d33b51f	0.043873902
189	0xbf30fb1f	-0.6913318
190	0x3ff72746	1.930886
191	0xbf2b19a9	-0.6683603
192	0xbf83fe19	-1.031192
193	0xbf5de596	-0.86678445
194	0xbf1dc70d	-0.6163185
195	0xbf1aa07a	-0.6040112
196	0xbeb481ad	-0.35255185
197	0xbef495a2	-0.4777041
198	0x3d1f1ec7	0.03884771
199	0xbf369164	-0.713156
200	0x401302f9	2.2970564
201	0xbd33bcf0	-0.043881357
202	0xbef2e363	-0.47439107
203	0xbd03be19	-0.032163713
204	0xbde1f5b4	-0.11033192
205	0xbf979c74	-1.1844621
206	0x3f87b22c	1.0601249
207	0x3fae3e73	1.3612808
208	0xbc821aa5	-0.015881846
209	0xbf07bf20	-0.5302601
210	0x3e966f4e	0.29381794
211	0xbf1fb9c7	-0.6239285
212	0xbed664c3	-0.4187375
213	0x4064a4fd	3.57257
214	0xbf48cf6a	-0.7844149
215	0x3b4f2d40	0.0031612664
216	0xbf17baf5	-0.5926965
217	0x401a2052	2.4082227
218	0xbf275219	-0.65359646
219	0xbf6e0ca5	-0.92988044
220	0xbf10b5b4	-0.56527257
221	0xbf0c2f32	-0.54759514
222	0x3ff9252a	1.9464467
223	0xbf53922a	-0.82644904
224	0xbf6637b7	-0.89928764
225	0xbee9baf3	-0.45650443
226	0xbf1dc963	-0.61635417
227	0xbd9b61a4	-0.07586983
228	0xbe18b73b	-0.14913647
229	0xbf17f72e	-0.5936154
230	0xbf28149c	-0.6565645
231	0xbf4da758	-0.8033347
232	0xbf1fa616	-0.623628
233	0x3e9db09f	0.30798814
234	0xbf3148f1	-0.69251925
235	0xbf78200e	-0.9692391
236	0x3daeaac1	0.085286625
237	0xbdd7b534	-0.10532609
238	0x3ea41869	0.32049873
239	0xbedf8ffe	-0.43664545
240	0xbf0e4a40	-0.55582047
241	0xbe86c836	-0.26324624
242	0xbfc0ee58	-1.5072737
243	0xbf610c11	-0.87909037
244	0x3f63008e	0.8867272
245	0xbf2d4e13	-0.67697257
246	0xbf0ad86b	-0.5423648
247	0x3f38d652	0.72202027
248	0xbe2c7107	-0.16839992
249	0xbfa85945	-1.3152243
250	0x3fde24b1	1.7354947
251	0xbf0e45fc	-0.5557554
252	0x3ca14603	0.019686705
253	0xbf2d1091	-0.67603403
254	0x3fa32ad5	1.2747446
255	0xbefd191c	-0.4943322

fc3.bias f4 [4]
0	0x3ecea87e	0.40362924
1	0xbe170d24	-0.14751107
2	0x3f30a859	0.6900688
3	0x3e9b1f14	0.30297148
